weights/weights_layer2.npy (npy, 2176 bytes, 1 tensors)

array f8 [16, 16]
00000000: 9a80 a71e a123 d83f 4616 3f67 187e edbf
00000010: 4886 ca14 e01f b83f 313e 34a6 6e02 b73f
00000020: 68e0 f7f1 b015 e13f bb43 aaf2 9a48 e5bf
00000030: ae90 30e4 a398 eabf dd25 7a0f 073e e5bf
00000040: 429f d26b 35e3 ba3f 2c86 87d5 c5d0 de3f
00000050: 519a c5cd 9ab1 e5bf 6419 b827 f32f d73f
00000060: cc53 5a7a b230 e33f c80c 2ccd c0ec e8bf
00000070: e848 30e6 0952 e4bf 695a fdf2 cadf e83f
00000080: 9cd9 1aa9 13be 9d3f 41d6 ec1f f203 0040
00000090: 167b 107c bec3 f2bf f09a 5fe1 4301 c3bf
000000a0: d21f 4872 7eeb f53f 5eae 8e4b 77ee eabf
000000b0: d17e 4365 629c fa3f 38ff 7bf0 4cc7 babf
000000c0: 8a84 e04f d242 0240 4c34 8ef7 a47f 0540
000000d0: 633f 5c4c c415 e13f 5c94 4382 eb46 ff3f
000000e0: 8d60 26d4 f904 d23f 0fb5 4b83 cee0 f1bf
000000f0: 90de b584 6459 f0bf bde3 d309 ffd5 f0bf
00000100: e77a c4d4 0e49 eb3f 897e efbb 2bc1 fabf
00000110: c0ed fa8c 173c 1040 f484 f503 5d8e f3bf
00000120: 20eb e1f0 a9cf c63f ccc1 ba87 ea88 f9bf
00000130: 48c8 6029 cd9a 0240 a17a 3ab8 afab cabf
00000140: 0c45 4d9d aacd 08c0 a250 f855 5192 0540
00000150: 90fb 2091 f4f1 f7bf 30a5 b699 61f4 f13f
00000160: 675c 90bf 9ed4 d33f 4f14 8128 7890 b93f
00000170: 65cb 2f62 6c82 dc3f 2d4f a9fc 69dd e13f
00000180: e973 bbee 13e5 01c0 f11d c3fc 3fb0 1440
00000190: 0722 504f 1215 eebf e2c7 82c8 4ffa ddbf
000001a0: a985 4f6c cc37 f53f 4002 b000 8d05 f83f
000001b0: 4213 6850 852a f5bf bb0a 81af 0e47 d13f
000001c0: 9a7d d70c bed7 f6bf 7f22 9f24 32c6 0240
000001d0: c055 8d60 6205 febf cc0e 3e06 c449 e5bf
000001e0: 8526 d172 c6b5 f13f cd37 0282 6cbb f5bf
000001f0: 759b dd25 a872 1140 1c59 e0fe 6bf5 c53f
00000200: a398 7901 d446 c5bf 97b9 128e ae0e dabf
00000210: 9166 adb6 21e3 dabf 7daa f74e 99f4 d7bf
00000220: 8dcc fb73 bb41 b1bf 11f7 8b54 c733 0440
00000230: 6786 5533 0272 d6bf 7166 ffa0 8588 dfbf
00000240: 8e68 59fc ffba f7bf 3f14 3b57 bbcb e0bf
00000250: fc01 dd3a 23f4 e0bf 69d5 8a3e f912 0ac0
00000260: 8f0c 72d3 fa1b e0bf 3cff 60e5 ea9b dabf
00000270: ba2a 439a a1ed cbbf 5683 7f6c 73fc fcbf
00000280: 5d82 7d74 5df1 f23f e519 74b5 6e70 f63f
00000290: ff13 0434 0a36 f0bf 2ed3 537e b591 0640
000002a0: bd21 cb47 7faf f03f 82d7 d7f1 31a0 04c0
000002b0: 1991 19a9 058f f53f 6941 ab01 ead3 e23f
000002c0: aed6 3fc9 2ce2 fdbf 32c4 7e94 393d ea3f
000002d0: 1db3 9756 a7c3 c8bf 5b71 ded2 5692 e33f
000002e0: 7dd7 a683 a8ff e53f b28b 95f8 845f fabf
000002f0: 2cd1 7428 5328 ffbf d6b0 78c9 3440 07c0
00000300: ad66 86b8 2c85 e43f 541f 4f8d ce49 b23f
00000310: 4a19 f0e8 afe4 0a40 4920 eaf0 2d1b ffbf
00000320: f1b3 9d45 dea2 f2bf 0cf9 20c6 75a7 de3f
00000330: 6f3d 29fe 35a2 f13f 4506 6dc2 b29b b8bf
00000340: 68c1 1557 8436 d33f 71b0 f7a3 8c44 fa3f
00000350: 11f6 5ada f51b d3bf 649a db35 60ad d6bf
00000360: 929c 8e7f 2507 e03f 6c86 7e8a 242e f83f
00000370: af27 554a abeb f13f 6b86 2e83 9b6a ebbf
00000380: bf85 a45b 4ad7 0640 c9b3 7202 5b25 d6bf
00000390: cecd e5c9 e79f 0040 1371 7c99 80a6 f3bf
000003a0: 9a48 ad37 d7f6 e63f 26a1 e08e cad9 e93f
000003b0: e00e af01 a87c ec3f 97c7 0e4f a121 e13f
000003c0: 752e f2ab 93e1 c73f 6cc5 fd3e e898 d73f
000003d0: 61fd b1cd a960 e83f bdc1 87da dd76 ed3f
000003e0: f28d 2998 15a2 e2bf 94ea ccee 6181 febf
000003f0: f0b1 bf6b f747 f1bf 58e3 ce6d 25a2 10c0
00000400: 481a d7b8 5ce7 fb3f ea73 0265 d62f bfbf
00000410: 6a67 4dac a667 05c0 e65b 86ca 69cc ecbf
00000420: d878 e915 f2fa f0bf 3726 482e 736f 0340
00000430: a42d ba8e 4ce5 e43f 2597 ffa4 ae62 f0bf
00000440: 462d c957 fc34 0040 81d3 4b3f 3f2a e7bf
00000450: 2018 1905 5e9f 08c0 9089 d4cd 4bd1 ecbf
00000460: 957c 7545 c23f e73f 9be8 f0da 7da1 dfbf
00000470: 7bda 7443 4113 da3f 89fd a43f e185 f6bf
00000480: 8bf7 bf08 57ac f33f d8cd 753a b798 f93f
00000490: 8665 35ef 9013 e3bf e322 ac36 b8e5 efbf
000004a0: 147e cde3 b367 fd3f 3842 beca 6005 ff3f
000004b0: 85e8 a37a eb2d d3bf 4033 a89c d95c ecbf
000004c0: aadf 1d52 bfa0 fcbf 0a2d 236b e61d d73f
000004d0: 7ecb 763f a757 f3bf adbb a354 acd6 e53f
000004e0: 0425 96c6 a4c2 e63f dc91 02c0 fb01 e03f
000004f0: 5ca8 81c1 5166 f5bf 6a72 01d1 262a f43f
00000500: 15eb e9b7 9563 04c0 1d69 b2ad e649 d8bf
00000510: 0f21 8773 10a0 b13f adc8 7178 ddb2 d2bf
00000520: 4a5f 39d3 1c76 fd3f 41f9 f2a6 3c50 0640
00000530: 2489 6269 a4f5 cb3f e151 d149 aaee d23f
00000540: 247a e13d d7ec 04c0 bad3 b999 b9d3 d9bf
00000550: 3142 216d 9dcc 0440 1af7 b13e d4c4 fdbf
00000560: 4830 4a8f c8ef e63f 7083 1b5e 42f1 f43f
00000570: 2e0e 5bc8 a8be eebf bc9c 3ce9 acff fabf
00000580: 3a49 cbc7 54ee f53f 1299 3207 b27a febf
00000590: 57d8 d7fc 4794 c73f 2df8 2ec9 4b7e f7bf
000005a0: a22f ac28 c413 fdbf f90c a7ea 0f5a c0bf
000005b0: daa8 db19 3fd1 c63f 2e5d ed83 7b4d e7bf
000005c0: 2190 c519 5755 fb3f 8018 90c5 6efd e7bf
000005d0: 8cf8 4800 8c8b 00c0 c633 b3c6 3b5b e63f
000005e0: 3f09 8388 51a7 e53f 037b 5120 8783 cb3f
000005f0: 8334 3c98 c622 e6bf e96c 2fba 09f4 d7bf
00000600: 781f c0cb f595 e8bf 4997 89a9 2661 c2bf
00000610: 372a d082 3d17 d9bf 3709 55ef a1a7 f43f
00000620: 3bfc 92f9 50b7 0040 fb40 c519 e691 e83f
00000630: 4522 a83f 8bc7 f6bf e5d5 8b74 49b2 f1bf
00000640: bdf3 9d7d e88e f2bf f5f2 02f0 5b81 d9bf
00000650: 3e84 1ccb d852 0940 2a9b 8584 3618 f23f
00000660: dc3c 1f70 b127 de3f 1d60 2ad2 b24c e6bf
00000670: df88 58dc 9e7d fbbf 975f 9cf4 f810 e9bf
00000680: 2503 01b3 3657 01c0 b54d 38c6 7763 f13f
00000690: 809d 7248 de5b 0ac0 e983 7e79 c3e3 d5bf
000006a0: ce09 2170 8f17 c2bf c163 e744 b140 c13f
000006b0: a8c4 022d 5d4d e8bf 77b2 0951 cda3 c73f
000006c0: ebf1 3475 8021 d53f 7634 2854 95ec dc3f
000006d0: 6820 183e 3784 fdbf bd22 1de4 5576 f83f
000006e0: 2610 ae8d a516 e23f f042 92ae 9e89 e93f
000006f0: b044 f4a5 1ac5 fabf 8511 9e46 3ee7 0d40
00000700: c18f 75e5 d00a 06c0 95a1 9e5a 4f96 ddbf
00000710: b75b bb28 9517 f0bf f324 d0c3 2489 0140
00000720: de98 7947 829f f4bf 8692 82fc 43e7 ffbf
00000730: 772a 3781 d331 f23f 8e42 17b8 ee60 c13f
00000740: 073a 8e55 369f fe3f 4137 55f5 a761 d0bf
00000750: a473 1ad8 eafa c33f 0904 6826 e9a2 fabf
00000760: 0908 e2e6 4400 e6bf 5e0e 5497 97e6 e43f
00000770: 0a7f c566 7b10 0240 9312 e327 75af f13f
00000780: 374f 3feb aad2 0140 8d4b ede6 08ce f83f
00000790: c035 0a73 0ee1 c1bf 97a8 75ea e40c 0340
000007a0: 8ae9 6ab2 1648 d0bf 7712 c061 7cbe ffbf
000007b0: af6d ffde 0cff 03c0 1f1a 56c7 8252 fbbf
000007c0: 9544 7170 816f 05c0 0d76 a31d fefd 02c0
000007d0: 3646 8b40 ed97 f5bf 5fba b805 b63d f7bf
000007e0: 6ece 7128 7191 e3bf f1ba b998 b95f da3f
000007f0: 04bf 8fc6 090e fa3f 8836 621e 2e24 0340
0.3771746444090326 -0.9216424957782656 0.09423637874217505 0.08988086278645181 0.5338978506033643 -0.6651129474213272 -0.8311328369932391 -0.6638217260635276
0.10502942926779915 0.48149247982482524 -0.6779302615148685 0.362301625049801 0.5996944799140862 -0.778900528647136 -0.6350144859191262 0.77731845339697
0.02904539794573112 2.001926659980001 -1.1727890821709415 -0.14847610954821944 1.3699936355715079 -0.8416096187333542 1.663179774819515 -0.10460358496856947
2.2826277008430838 2.687326368357878 0.5339070788777288 1.9548144424855058 0.28155370443119737 -1.1173844460238944 -1.021824377441508 -1.0522451766866958
0.8526682048430673 -1.6721608487349917 4.05868358880565 -1.2222566752100734 0.17821239721146132 -1.5959267904219017 2.325586627260268 -0.20836445327309597
-3.1004230775075765 2.6964441982655254 -1.4965711278052574 1.1221633915359455 0.30985230166829186 0.09986067761299576 0.4454604109625307 0.5582780775825761
-2.2368544245677993 5.172119092377657 -0.9400722073633582 -0.4684028108705417 1.3261226874240981 1.5013551737648783 -1.3228810444717998 0.26996199740475973
-1.4276714803344022 2.346775327783973 -1.8763145228925708 -0.6652546045229086 1.1068787083662823 -1.3582577780211864 4.361969558382829 0.1715521807206607
-0.16622400352497832 -0.4071461093361903 -0.4201130184133968 -0.3743041297117669 -0.0674092443621694 2.5252825360502205 -0.3507085324582477 -0.4927076408617728
-1.4831542832749025 -0.5248696044660689 -0.5298019551919988 -3.259264458286158 -0.5034155015749934 -0.4157664527920024 -0.2181894305452568 -1.8116335142332978
1.1839270162965 1.4024493301418428 -1.013193324267604 2.8211469525653206 1.0428459934647514 -2.5782202619547556 1.3474175076926882 0.5883684189412125
-1.8677184926322457 0.8199737453743465 -0.19347087600854077 0.6116136663945712 0.6874582835505262 -1.6483201704329358 -1.9473449306797859 -2.90635068320817
0.6412566761020649 0.07143870305946837 3.361663646533235 -1.9441356096958933 -1.164762756288152 0.47897095058932915 1.102102272812626 -0.09612576719975958
0.3002024507941514 1.6417356877309681 -0.29858156512986606 -0.3543320203738516 0.5008723727559234 1.5112653169566341 1.120036402093756 -0.8567636072295505
2.855122295339896 -0.3460299991518779 2.078078820539054 -1.2281499858427807 0.717631920570301 0.8078358450484628 0.8902168305289386 0.5353552383514736
0.18657155891229463 0.36870771552556536 0.7617997186170379 0.9207600849313661 -0.5822856876297335 -1.9065875366347074 -1.0800699433267447 -4.158345905067868
1.74398491099568 -0.12182369199804524 -2.6756108723756613 -0.8999527888835217 -1.061266027063132 2.429418908669301 0.6529906070367599 -1.0240923352479936
2.0258719309109976 -0.7239071117643193 -3.077816047504726 -0.9005488414880336 0.7265330654735346 -0.4942316663833794 0.40742522800011444 -1.4076855169404061
1.2295751897613367 1.5997841151810146 -0.5961384460489831 -0.9967919414349037 1.8378180407088438 1.9388130111366433 -0.2996777246149878 -0.8863342342097908
-1.7892449577029574 0.36119995558392815 -1.2088997344078218 0.6824552205197186 0.7112602118151305 0.5002421140857751 -1.3374803122374237 1.2602909244807514
-2.5486254089604565 -0.37951056444730275 0.06884863682273966 -0.2921670604911338 1.841336083501988 2.7891781847858117 0.2184339060377819 0.29581696709399635
-2.6156449160037187 -0.4035476685742726 2.599909641816588 -1.8605539750128117 0.7167704390171901 1.308901183707544 -0.9607738412091231 -1.6874207602320856
1.3706863216835488 -1.9049549370916492 0.18421268316132242 -1.4683339937905757 -1.8173257435582646 -0.1277484794391979 0.17826069605445732 -0.7282083107665238
1.7083350187977049 -0.749686609139431 -2.068138124682326 0.6986369019374414 0.676674620270468 0.21495141103783774 -0.6917450879424368 -0.3742698972907435
-0.7683056811811033 -0.14358981397816198 -0.3920434739563094 1.2909259175217593 2.089509916113028 0.767809915860226 -1.423716782244939 -1.106027083643647
-1.1598896891511992 -0.39852045477509473 3.16545256310249 1.1309113670956301 0.47117267560402154 -0.6968626122279634 -1.7181690795192066 -0.783321836238417
-2.16758479925956 1.0867841475454558 -3.2948575649240297 -0.3420265852419662 -0.14134400343944126 0.13478675713011337 -0.7594438437573858 0.18468634087493616
0.330169786891729 0.45193989962064707 -1.844779245906489 1.5288905058570628 0.5652644889055451 0.7980492982479443 -1.6731211168846976 3.737911750506273
-2.755281250620073 -0.4622991929013776 -1.005757483586178 2.191964654721795 -1.2889426033012152 -1.9939613212274323 1.1371645972709794 0.1357706450348996
1.9138701765074317 -0.25596045454300415 0.15609489013595834 -1.6647731304403826 -0.6875328549797369 0.653148456156895 2.258047869588954 1.1053363378606818
2.2278650644965654 1.5503014584143984 -0.13968067757779856 2.3812959973484555 -0.25439994262310306 -1.9840053385134107 -2.4995362683964326 -1.7076442514968517
-2.6794461044851894 -2.374019843626917 -1.3495914956332746 -1.4525661681651838 -0.6115041532452332 0.4120925895175978 1.6284272915181086 2.392666089412902
