weights/weightslayer2.npy (npy, 2176 bytes, 1 tensors)

array f8 [16, 16]
-0.05312909671283926 -0.09290806663524324 -0.033989435830618246 0.12789784877071825 0.08903482901400137 0.18157730711908085 0.01903198127104372 -0.17465737907270787
2.5647421550984597 -0.13245646250560983 -0.10747825662596976 1.5508537284707213 -0.19806456502400438 -0.3142310869822468 0.05712541181493951 -0.13891950780264778
0.15838841986389454 -0.06435155218521807 -0.21145400179393384 0.07139453945887841 -0.24457723979694 -0.2651766952111226 -0.231274304607526 -0.061284236130154435
2.3858935862940664 0.12331395918718048 -0.09472245558308347 1.7488502557541057 -0.07447202113633047 -0.2869441228367935 -0.0016143255334203892 -0.14038602548986254
-0.05979673850180562 0.07846700965829807 -0.1934082928069736 -0.15941545447002484 0.011242328161285344 0.006199693745246478 -0.32330971049612395 0.17256745735239437
2.614966141803167 -0.2540824939251424 -0.26740384438543935 1.7340022527286763 -0.16894183401925386 -0.21339805055466696 -0.2493186526075615 0.14393034200435972
-0.11070350388204787 0.014348218167482244 0.08383335500857432 -0.22566040414754052 -0.05498283581057025 -0.07927273251033068 0.055563292332838216 0.1741742331423231
2.7591015497872062 0.006456691261469907 0.18928182317940462 1.6788779661404445 -0.0354754351321813 -0.05333933604367501 0.05427193547168332 0.10986650695556281
-0.2821679224758778 -0.08931026461506711 0.04221078451902957 -0.129365292500205 -0.18082655175528856 -0.12719643359635127 -0.26715037325676183 -0.22078581822369958
2.40488222435969 -0.3080711425573892 -0.055955147876875964 1.66607953254057 0.07740696380259653 0.11469875448446397 -0.35677709740885444 0.034562388582461974
0.19980695066569235 0.040233027545096806 -0.1703010621648687 0.22680461682313433 0.14217287154801983 0.18576192841912345 -0.2749278241482128 0.03974425679348649
2.8382051259702137 -0.14246730104364067 -0.1748856502255022 1.347871144230418 0.1267283816852589 0.16719056046573144 -0.004665557126195293 0.13553043639819842
0.08421429572469347 0.025350828330341305 -0.2117572197117259 0.13154220997603108 0.06838058046779164 -0.2852785376385267 -0.19022935899309384 -0.27190027512050696
2.548971302405586 -0.11177120153174139 0.030348795486572808 1.3676701770934165 0.09514444668235618 -0.13803731098236888 0.09489275585434791 -0.2347552157625712
-0.14463976576420626 0.040556318160364854 -0.06030314001307148 0.16648258968337 0.0213029813824746 -0.11818002795426422 0.01748643782255432 -0.18259634827634924
2.4059881329787007 -0.3241276852167272 0.20141468959901332 1.4970359579567967 0.1788011659698207 0.15003145878574628 -0.024395635097746598 -0.25014873195417925
-0.17141129175512104 0.08636465220747087 -0.0569534089342999 -0.23912611965565084 0.16251315533435937 0.15095159165357852 -0.013657899859614912 -0.04259196201907276
2.5079338754880265 -0.13619872349140796 -0.10996038678233752 1.6084734247347139 -0.18245867410340733 -0.25162240102923217 -0.14520680577281372 -0.3023167009562475
0.13951445490126824 0.10226383999538934 -0.2776348388026458 -0.13516784473676255 -0.24737316636972354 -0.058118072859067726 -0.1792709884025003 -0.24003274420130669
2.6171471906724078 0.05521976621718914 0.15074291400961315 1.558656154690189 -0.2652306793898917 -0.2800800956265644 -0.04953845025534394 -0.30238408174889414
-0.0011052637773673844 -0.24894827306834488 -0.05096298058228712 -0.23582617840300935 -0.09477905880720092 -0.17497735440939266 -0.030621040498544947 -0.25715687952806154
2.555647426141499 -0.09120670159704602 -0.2673323190730101 1.615577924949014 -0.27327809905957956 0.01946557490412502 -0.013651201585770576 -0.028141218878239276
-0.2731031509633646 -0.2373741767716949 -0.06788524754122675 -0.18038212357503963 -0.07586686032981317 -0.06791258881105172 -0.007588075274217937 -0.005182884486522867
2.5588586840889262 0.12735015278586584 -0.19559054419809138 1.5675844945369741 0.10991627856153853 0.1391704928502734 -0.20251525751589433 -0.09532287422142709
0.14517401137831665 -0.2389781335232753 -0.01264737551877562 0.11103810670817064 -0.2357195864261646 -0.16053141996177359 -0.2987475480135079 -0.08029945608493337
2.72002039547824 -0.12347162935836269 -0.21415350760977994 1.7890783433939539 -0.27843013557704954 -0.28778077674605507 -0.2696331360801157 -0.3234140822198023
-0.1273709837643773 -0.1733485250460513 0.00023024020181738896 -0.16971998545727354 -0.11871640656584982 -0.22986592586858942 -0.17928282335240806 0.1336222260999285
2.7450575734545186 -0.10058083076657401 0.041301585059270944 1.5515514294114239 -0.22184089505972396 0.05109429411526914 0.029338693870055017 -0.11784137977362279
0.06509772609973699 0.02046951291648893 -0.23899987559665523 -0.0571265958253392 0.03417972244962795 -0.1446473098561444 0.06360130154772856 0.07543965156455168
2.388385636062855 -0.2164440644947352 0.18011698034609422 1.4466866941728427 -0.024100781402065213 0.018153665791644534 -0.3283620030562093 -0.15243615144859363
-0.1556113340456438 -0.26726463127070416 -0.22287757825149107 -0.1441950779534463 -0.1305790777103622 0.0976999472397068 0.08132517655887038 -0.2773678327470009
2.6212433457046744 -0.13238139746764055 -0.09380196012279589 1.775835195282034 -0.1262452508070343 0.1788038776889884 -0.02845602429580713 0.08919395807092519
00000000: 3e01 b2a9 bc33 abbf 2ba3 bbb3 d2c8 b7bf
00000010: 379f 9a36 1067 a1bf 7678 d9ea f45e c03f
00000020: 46f1 d18e fcca b63f 75d7 e2d9 ec3d c73f
00000030: b082 8ca4 1e7d 933f 55a9 8f49 2c5b c6bf
00000040: 4590 f688 9784 0440 347f 4d57 55f4 c0bf
00000050: bf58 3ded b183 bbbf 2595 caff 4bd0 f83f
00000060: ec24 a3fe 2d5a c9bf 026b 7eb4 5c1c d4bf
00000070: 7709 08bf 8a3f ad3f 0af7 644b 1dc8 c1bf
00000080: a9b5 b05d 1246 c43f d214 15e4 5779 b0bf
00000090: 4519 28bb ec10 cbbf d0bf 169c e946 b23f
000000a0: 1b0c 2397 4e4e cfbf ddf5 65ac a7f8 d0bf
000000b0: 45e4 587b 659a cdbf 20f3 e0bb a560 afbf
000000c0: 0ff4 6660 4f16 0340 6966 d9ed 8091 bf3f
000000d0: 9118 ed18 bb3f b8bf bb0a e167 4afb fb3f
000000e0: 1a60 3f2f 9910 b3bf 8442 d7e1 4a5d d2bf
000000f0: f8ba c0d7 f872 5abf 4fae 2556 2bf8 c1bf
00000100: d9a1 8b98 ad9d aebf 451c 4cf8 6916 b43f
00000110: 51c9 305a 9ac1 c8bf 717e b6c1 b967 c4bf
00000120: c1da 44be 3706 873f 3cc7 189e d964 793f
00000130: 5bd8 4336 1bb1 d4bf 2a59 d7c0 b016 c63f
00000140: 0389 595e 73eb 0440 3741 7938 e342 d0bf
00000150: db72 9d03 251d d1bf 538f 6a25 79be fb3f
00000160: 7ffc 04d2 e29f c5bf 23cb 1498 a050 cbbf
00000170: c1ba 9d71 ace9 cfbf f4c8 e737 4f6c c23f
00000180: 71db b998 1057 bcbf cf1b 483e 9962 8d3f
00000190: 9d66 134e 1a76 b53f 186d e8ab 70e2 ccbf
000001a0: 2ba4 4bd3 b526 acbf 64af 98c1 374b b4bf
000001b0: 04f2 dab6 ca72 ac3f e279 935d 574b c63f
000001c0: 866e 55d5 a312 0640 3622 efdc 5472 7a3f
000001d0: b632 2404 633a c83f 72c5 6824 afdc fa3f
000001e0: 3d7e 6813 d629 a2bf 8ebe cb1f 4b4f abbf
000001f0: 930c e2f7 87c9 ab3f 2bc6 4c1e 3620 bc3f
00000200: f9e7 c00b 0a0f d2bf 8a04 b899 09dd b6bf
00000210: bc70 18e6 a69c a53f 344f 43ba 0a8f c0bf
00000220: 0aca 040f 5325 c7bf bd69 3b05 f947 c0bf
00000230: 8620 10e1 fd18 d1bf 7c7f 58ae b542 ccbf
00000240: 53da 42e4 323d 0340 9405 8806 70b7 d3bf
00000250: f319 5934 27a6 acbf 59bf 0c03 43a8 fa3f
00000260: 73ca 035a f1d0 b33f bf17 67c7 e55c bd3f
00000270: 304d 559b 6fd5 d6bf 4142 4451 29b2 a13f
00000280: 79b2 4f2f 4693 c93f 9cee 0c63 6c99 a43f
00000290: 3370 3cda 6ccc c5bf 7f28 eb05 ef07 cd3f
000002a0: fcac d67c b832 c23f a975 b3ff 0bc7 c73f
000002b0: 6287 5edf 6a98 d1bf e281 43f6 5b59 a43f
000002c0: 930d 9be3 a4b4 0640 63ac 5d57 5e3c c2bf
000002d0: 950d 212a a762 c6bf 6311 3b55 e190 f53f
000002e0: b016 68b7 a238 c03f a43a b312 8066 c53f
000002f0: e2e0 64f4 301c 73bf f9af f8b3 0f59 c13f
00000300: 6444 fe6d 118f b53f a1da 6b4a 91f5 993f
00000310: a847 ad4e dc1a cbbf c9ff f108 60d6 c03f
00000320: ca68 cac4 6381 b13f 931f 5ae9 0042 d2bf
00000330: 0ea4 ce85 6f59 c8bf 6a9f 5a69 d066 d1bf
00000340: 3632 f210 4b64 0440 f2a4 3697 099d bcbf
00000350: 2cee 5930 c113 9f3f c34a a51f fae1 f53f
00000360: 7590 e5ee 625b b83f ee05 26e4 34ab c1bf
00000370: 8b90 0543 e44a b83f 6001 227b 750c cebf
00000380: 5945 d44b 8e83 c2bf 4e35 4a38 ccc3 a43f
00000390: 728d 679c 0de0 aebf 2390 052f 4d4f c53f
000003a0: 4e4e 61e1 72d0 953f 329b 1adb 0b41 bebf
000003b0: 3f1f 49fa f6e7 913f 1ea4 1b30 515f c7bf
000003c0: 34a9 cdb4 763f 0340 48fa ee0b 82be d4bf
000003d0: 2481 61e0 f4c7 c93f 7fc4 05fa dbf3 f73f
000003e0: b6dc 29e4 f4e2 c63f d78f 6d18 3b34 c33f
000003f0: 8bcf a35b 2bfb 98bf af42 b8d3 6f02 d0bf
00000400: 146e 2022 cef0 c5bf c5f1 c26c fe1b b63f
00000410: 107d 8949 ff28 adbf ee2b c547 af9b cebf
00000420: 0359 aa27 3bcd c43f bc33 b7ba 6152 c33f
00000430: a22c d549 acf8 8bbf 4d87 e317 9dce a5bf
00000440: 4c03 bea2 3f10 0440 9186 93b3 f56e c1bf
00000450: 2eed 1529 5d26 bcbf 0b88 3ba1 4ebc f93f
00000460: e0a4 124b ce5a c7bf 9e23 d7d7 941a d0bf
00000470: bfb5 f9f8 2296 c2bf 8811 e925 2859 d3bf
00000480: 2c63 8f12 9cdb c13f 77f4 5788 f62d ba3f
00000490: 5dce 38ea c4c4 d1bf e7be 4e10 2e4d c1bf
000004a0: 95a3 bb85 eca9 cfbf 98f4 78ec a6c1 adbf
000004b0: 07b9 270c 5af2 c6bf d328 2899 64b9 cebf
000004c0: d60c c6dd eaef 0440 5dbe fde3 c345 ac3f
000004d0: 2434 e336 8b4b c33f d9a7 a16f 41f0 f83f
000004e0: 4f07 7819 8af9 d0bf 6181 be10 d5ec d1bf
000004f0: da81 7b8f 1a5d a9bf c551 7cc3 425a d3bf
00000500: 7067 bef1 cf1b 52bf 34b3 9c79 89dd cfbf
00000510: c3b1 d0dd d117 aabf 080b e45d 8d2f cebf
00000520: c62e ecbd 7043 b8bf 004e 5d6f a865 c6bf
00000530: f9ff 0a3e 1f5b 9fbf 86ec e020 4275 d0bf
00000540: 1313 1b47 f771 0440 480c 8988 5259 b7bf
00000550: 4b46 e503 f91b d1bf 9bba fc3c 68d9 f93f
00000560: e021 8b6c 637d d1bf 7bb8 719e c8ee 933f
00000570: f259 e542 29f5 8bbf 7ea7 013b 0dd1 9cbf
00000580: f59e 74a3 857a d1bf fb1d 13eb 4662 cebf
00000590: eb07 1276 ed60 b1bf 7ad7 c4ec c216 c7bf
000005a0: c17c f7b3 026c b3bf 241f ee2b b862 b1bf
000005b0: 2d13 4772 ac14 7fbf b5a0 e5f5 a53a 75bf
000005c0: f3fa d9e6 8a78 0440 098e ad82 024d c03f
000005d0: 276b 5e67 1c09 c9bf 440c 9c7a d314 f93f
000005e0: 0947 b825 7923 bc3f 9c18 aeb5 56d0 c13f
000005f0: 6e63 fc1b 05ec c9bf fb7c 5773 1467 b8bf
00000600: 18ac 8cdf 0f95 c23f fa85 f8e1 d596 cebf
00000610: 4ff2 dd01 dee6 89bf abdd eb4c fe6c bc3f
00000620: 130f 5d35 0f2c cebf 61ae 5b27 4b8c c4bf
00000630: ee9a 1e09 ae1e d3bf f778 c551 818e b4bf
00000640: 9741 980d 9ac2 0540 e3f7 1332 d69b bfbf
00000650: 0dfc c0d3 6169 cbbf 03be ed9c 10a0 fc3f
00000660: b48d a1a1 ccd1 d1bf 96ac 2210 006b d2bf
00000670: ed72 5857 ab41 d1bf 42cb 8cfa d0b2 d4bf
00000680: b919 dd40 b14d c0bf eef9 f0d2 4830 c6bf
00000690: 06d0 2846 942d 2e3f 791f 826d 62b9 c5bf
000006a0: 59ef b2cb 3264 bebf 4b01 0925 3f6c cdbf
000006b0: db3d 8453 bdf2 c6bf b117 8f79 881a c13f
000006c0: 84fe bcbe e0f5 0540 da37 bf52 aabf b9bf
000006d0: ef7e 343a 7b25 a53f 5925 7697 27d3 f83f
000006e0: 7133 994e 4865 ccbf 947d 7904 0829 aa3f
000006f0: 358b b76a f60a 9e3f 0b44 3e48 da2a bebf
00000700: 2270 a49c 3eaa b03f c65c 2ac2 f5f5 943f
00000710: 1bc5 b744 8c97 cebf d270 9a79 b23f adbf
00000720: 6d0b 372c 0180 a13f a5ac a494 cd83 c2bf
00000730: 4e6a 21c6 2c48 b03f 3098 4a54 0350 b33f
00000740: 4b02 a9ed 691b 0340 a887 3569 70b4 cbbf
00000750: 4737 05be 120e c73f cd7d 70f2 a025 f73f
00000760: ab3b b80f e0ad 98bf b6b0 82e3 df96 923f
00000770: b707 1810 e203 d5bf 7693 991e 0783 c3bf
00000780: da75 4e7b 12eb c3bf e1d9 ab1c dd1a d1bf
00000790: ee08 cda2 4087 ccbf c3f0 06fc fb74 c2bf
000007a0: 9267 27b2 d0b6 c0bf cb28 371e dd02 b93f
000007b0: 076a a90d bad1 b43f cd16 a702 65c0 d1bf
000007c0: 0a46 656e 4ef8 0440 1c74 5ca6 dff1 c0bf
000007d0: db31 07bf 6703 b8bf 5c27 6d2a d269 fc3f
000007e0: 74ea beeb cd28 c0bf 7f3d 89a3 0be3 c63f
000007f0: b110 e676 9323 9dbf e558 ea4c 6ad5 b63f
