weights/weights_layer2.npy (npy, 2176 bytes, 1 tensors)

array f8 [16, 16]
000000 da 9f 50 ff 69 ac 11 c0 51 0f a9 2d cb 68 f2 bf
       -4.418373097701954 -1.1505843909844382
000010 18 c0 bc 15 f6 1c f5 3f c9 d2 71 bf ec a1 f4 bf
       1.3195706223596115 -1.289532420950467
000020 b5 21 68 d3 b5 9a 00 c0 c9 99 f8 32 82 11 ec 3f
       -2.0755421177056754 0.8771372790841322
000030 54 54 3d 9d 13 62 f9 bf 7e ce a2 7a 5c b5 e1 bf
       -1.586444486825049 -0.5533888240083369
000040 48 05 33 a4 db ef f9 3f 47 dd 70 1a 31 77 ed 3f
       1.6210590757403498 0.9207997814582222
000050 0c c0 d6 b8 4d 2b d8 bf 9c 96 d7 77 ac ba e4 3f
       -0.37764304209395116 0.6477873173395952
000060 f7 b1 2e 59 65 94 e7 3f a6 04 f4 78 4a e7 ff 3f
       0.7368647329181489 1.9939675068601814
000070 54 59 22 fa 1a 33 fd bf 69 22 5c 25 58 5f f7 3f
       -1.824976899229644 1.460777421891317
000080 f3 9a a9 a1 35 f6 fd 3f e5 6f 17 77 95 97 d5 3f
       1.872609740728589 0.33737694387468614
000090 b5 b0 19 1c c0 da c5 3f 0e 75 30 51 4b 27 f4 bf
       0.1707382333000901 -1.2595933124023904
0000a0 c2 f7 2b 8d f5 f7 f8 bf ab 53 49 12 1d 9a 06 40
       -1.5605369104882674 2.825250761854894
0000b0 03 f7 7c 42 ca 16 fb bf 9a fa 7c 83 73 88 dc bf
       -1.6930639836495522 -0.4458283218445246
0000c0 b8 ec d3 80 48 1f ef bf e1 de 6b 67 8f db 08 40
       -0.9725687519234247 3.107207115153742
0000d0 a1 44 91 bd 92 03 e4 bf 07 41 c7 5f 37 46 fc 3f
       -0.6254361822594953 1.7671426526395082
0000e0 13 ea 95 8a 68 0a 04 40 d9 49 8e 99 91 fb 9d bf
       2.5050822093010168 -0.029279971120169754
0000f0 46 fa 62 e9 41 37 c6 bf 6e ea de 19 a4 09 08 c0
       -0.173561324079815 -3.004707529177998
000100 10 1e 5a 01 06 b5 eb 3f 7e 31 c3 08 09 fe bc 3f
       0.865847590103785 0.11325127090385043
000110 5f f9 45 2f d3 75 ee bf 48 f9 ad a4 10 56 0c 40
       -0.9518829272563315 3.5420239320366456
000120 7b bf 43 4a 26 c8 da 3f ae b6 ea 8a 55 3f ef 3f
       0.41846616032034206 0.976481219598744
000130 dd 11 56 c4 b6 48 d3 bf 82 86 91 a1 28 25 fc bf
       -0.30131310628374114 -1.759071951987068
000140 ad 17 04 19 e3 d7 d9 bf 28 a3 1c 94 20 4f 04 c0
       -0.4038017029091588 -2.5386363574256343
000150 66 7b 62 b8 bb a3 cb 3f df c5 2c 13 fb e5 fe bf
       0.21593424323233562 -1.9311476468104656
000160 76 2c fa ca 1a c4 c2 bf d5 bf 33 93 25 66 de 3f
       -0.14660963927267162 0.47498454451760824
000170 0b b2 8d 5a 43 09 f9 3f ff 24 32 db 9c 60 f5 3f
       1.5647614991422667 1.3360870897616335
000180 44 81 62 30 e0 5d de bf d6 c5 6e f8 b9 79 df bf
       -0.47447972035481123 -0.4918045927143714
000190 dc 63 05 3c 84 59 04 40 fd 00 9c 3c 72 de dd bf
       2.543709248461239 -0.4667020408524108
0001a0 f2 16 39 eb 9d 8d eb 3f 45 0e aa e9 63 b5 fa 3f
       0.8610372156333297 1.6692847373496005
0001b0 71 ae 7c 67 00 d4 df 3f 6f 6b 65 ff ea 8c 94 bf
       0.4973145495048135 -0.020068809354920555
0001c0 3d 2c f9 6c 55 24 00 c0 d8 c6 3d d6 c0 06 fc 3f
       -2.0177410615483766 1.7516487473298437
0001d0 37 bb 25 c6 20 e0 f9 bf b1 a7 ec f7 43 c5 03 40
       -1.617218755734667 2.471321045789374
0001e0 48 d6 85 fe 93 4b f4 bf dc 18 25 07 5f 0b ed 3f
       -1.2684516851708327 0.9076380862759623
0001f0 c9 a2 4b 4f 93 31 ff bf 85 da f3 60 30 2a f4 bf
       -1.9496033761480922 -1.260300043793593
000200 54 2d 09 3f 01 17 eb bf f6 b7 f9 8a 25 04 07 c0
       -0.8465582114380745 -2.877024732347304
000210 31 18 79 35 ec f2 dc 3f 35 51 b3 7d d6 65 f4 bf
       0.45232682439780364 -1.2748627576994072
000220 12 c9 2f 70 82 f7 d0 bf 0c 50 89 35 d4 27 d8 bf
       -0.26510678249100394 -0.3774309656921566
000230 2a a9 9d 81 ad e3 00 c0 b7 58 84 1e e7 23 e2 bf
       -2.1111707807769067 -0.5668826671633472
000240 81 cf ea ad bb c6 00 40 90 a7 16 83 3b 47 e3 3f
       2.097037657478666 0.602445369751182
000250 32 37 13 67 d2 1d 02 40 59 40 a3 e7 a4 9c fc 3f
       2.26456146743194 1.7882432030055695
000260 92 60 09 ea a3 7f f7 bf b9 99 f8 d4 c3 c6 e4 3f
       -1.4686621801429607 0.6492633018104278
000270 7b dd fd 3c 0a f7 b6 3f d7 00 9c a8 fb 2a f3 3f
       0.08970703114561289 1.1979939066223346
000280 ec 7d bc 64 ab 88 f0 3f b3 28 61 ae c2 91 fe bf
       1.0333665785800532 -1.910586053056744
000290 de 46 55 0e 43 2c 02 c0 da 81 df e6 94 07 f5 3f
       -2.271612274148409 1.314350988243055
0002a0 ed e9 53 93 40 4e f6 3f 30 0e 99 72 58 19 05 c0
       1.39410455274503 -2.6373757317503745
0002b0 db fa 34 8b 4a 4a e9 bf a8 8d ad e8 e6 68 d3 bf
       -0.7903187483678623 -0.30327770922141406
0002c0 aa 8d 3c b5 ac b9 fc 3f 3e cb 15 df 52 07 02 40
       1.7953307227661335 2.25357603345165
0002d0 7b ac fd b2 b7 f8 f9 bf 01 d9 21 da eb d0 f5 bf
       -1.6232220641930144 -1.363506176070189
0002e0 7d 22 06 a2 9d d1 c7 3f 72 62 2f 67 ee a4 02 40
       0.186084465134872 2.330532842763483
0002f0 82 c0 ba 64 85 08 ff bf 78 a1 d1 90 92 ae 01 40
       -1.939580338930711 2.210240489385054
000300 50 b2 8e fc 57 1f fb bf dc 1f 57 f0 24 56 ff 3f
       -1.6951522698901904 1.9585313213628899
000310 a8 dd ba 6a b2 05 ec bf 3a 0a 20 7a cc f2 03 c0
       -0.8756954273766739 -2.4935540715244118
000320 4b db 69 63 d2 11 02 c0 b4 d5 76 67 57 f8 f6 bf
       -2.2587020651512026 -1.4356302300997017
000330 90 7f ae f7 18 f3 e6 bf 29 7d 6a 4b 1e 7c 01 40
       -0.7171749913722909 2.1856046573517642
000340 80 07 0c 6d 0f 98 f9 3f 4b 9f 88 a1 31 27 f0 3f
       1.599624086346438 1.0095688161763572
000350 54 1c 71 77 58 e3 bc bf 30 8f 0f 70 5c d6 b1 bf
       -0.11284401813564787 -0.06967714057787755
000360 fe a9 f3 71 a8 fb 01 40 c1 ed 6e f9 4e a5 f4 3f
       2.2478798773274766 1.2903585189331894
000370 c3 70 61 78 ba 54 00 40 c3 7f b6 c2 57 53 81 3f
       2.041371288751266 0.00845974505392622
000380 96 21 9d d2 32 21 02 40 96 14 03 7e 86 83 a7 bf
       2.2662102178766856 -0.04592533386452506
000390 df 0e 84 8b 24 24 02 c0 ef 6a d3 cb 1a a6 f4 3f
       -2.2676478290248805 1.2905528985926897
0003a0 e9 57 00 c5 d2 d1 f2 3f 88 8b a1 d1 85 58 cb bf
       1.1762263961186312 -0.21363899932756802
0003b0 39 0d b3 c1 b4 d0 da bf d7 46 c9 e9 a1 ed f6 bf
       -0.4189884082408813 -1.4330157406115427
0003c0 c0 20 92 3b 19 e0 f0 3f a3 64 4d 30 80 1c f2 3f
       1.054711563776479 1.1319581877526523
0003d0 48 fe 57 fe b6 ef e8 bf 04 5c db 3c a7 7f ff 3f
       -0.7792620628023963 1.9686653496953577
0003e0 d1 7a ef d7 4f 59 d5 bf 75 c8 f3 37 92 d5 f7 bf
       -0.3335761650795748 -1.4896413980136718
0003f0 f7 9c f8 94 17 63 db bf 9a e2 0c cf f0 2a f8 3f
       -0.42792310283625973 1.510483559408533
000400 a8 5b 14 9e f0 8f 06 40 d4 10 95 8e 8f e5 e5 3f
       2.820283160206106 0.6842725548563302
000410 ee 10 b2 74 25 5f d2 bf 24 cc 62 fc 30 69 f8 bf
       -0.2870572700123962 -1.5256814822030345
000420 19 1b 0f 20 65 2b c4 bf 4f 33 62 88 da 4a 03 40
       -0.1575743109262582 2.411549630638923
000430 84 24 fa ec a2 d5 f2 bf 09 3f 04 3a 6d a3 eb 3f
       -1.1771573311728227 0.8636995442520582
000440 5a 92 ab e2 e3 98 d1 bf e5 d7 c1 0b df 7a de 3f
       -0.2749566758705321 0.4762494673553859
000450 2d 84 3a 6c 52 e0 df 3f ac 14 e9 14 5f 44 c3 bf
       0.4980665261192055 -0.15052402993220448
000460 9c 5e b9 cf cd 9f dc 3f c4 30 18 58 12 d7 01 c0
       0.4472536591106093 -2.230015457380519
000470 99 c0 dd 28 79 13 0c c0 a1 00 41 6f a7 32 db bf
       -3.5095084374116365 -0.4249666773284933
000480 22 98 b9 21 b9 5e ec bf 70 55 c9 19 00 cf 01 40
       -0.8865628870669335 2.226074410874098
000490 a5 2c ba f6 83 81 ee bf 52 1c c6 40 0e ab dc 3f
       -0.9533099955455283 0.44794040990422446
0004a0 4c dc cc c3 e5 d3 d2 3f 5e 70 96 44 fb 70 e7 3f
       0.2941831981765446 0.7325416888811664
0004b0 07 55 17 a0 39 62 b4 3f 50 0a 9b ca 8d a3 c1 bf
       0.07962379606700064 -0.13780376808979833
0004c0 88 eb e0 22 c1 6c fe bf e6 c1 cb 56 5c 08 03 c0
       -1.901551376575954 -2.3790823727542714
0004d0 9a 34 01 f7 d5 41 d3 3f e6 95 ab 40 64 ea 02 40
       0.30089329835466005 2.364449029194236
0004e0 64 34 d1 24 17 4c 05 c0 14 47 8d 35 2e ec e3 bf
       -2.662153518328113 -0.6225806280074004
0004f0 9c a3 4d 5b 8e 47 c6 bf cc db be 7a 05 a0 02 40
       -0.17405871828239305 2.3281354512687127
000500 99 90 bf 8c 63 6e 02 40 2d 8a 90 51 c9 9b eb 3f
       2.3039008136712025 0.862766894632221
000510 84 6e b9 4b 4e 02 f1 bf 67 cb cb 4b 44 11 f1 3f
       -1.0630629499418385 1.0667155228408889
000520 ad 82 79 b0 85 d2 f8 3f ef ee 09 ca 1e 54 01 c0
       1.5513970273533844 -2.166074350765363
000530 5e d5 67 ee a2 15 07 c0 d9 01 ed 6d 8f 0e 05 40
       -2.8855646729886493 2.632109507365595
000540 be b2 0b 4b 9e 61 e9 3f bd 4a 1a 88 da f2 fb 3f
       0.793166300366998 1.7467904392730553
000550 34 32 ec 75 8c e0 f3 bf a6 da 4e fe 29 51 f4 bf
       -1.2423214537003675 -1.2698154386431866
000560 f1 ee 34 3a c8 c6 e2 bf 9f 9c ee 7a 61 ce f6 bf
       -0.5867653977252002 -1.4253859331163665
000570 1f a0 d5 64 08 a6 f0 3f b4 0f 15 5e 1a b1 ed bf
       1.0405353487822209 -0.9278690183204987
000580 59 70 3e 41 2d 74 f7 3f a4 2c bb f9 4d 0f 04 c0
       1.4658634708967127 -2.5074729452367865
000590 03 07 52 49 95 c4 f1 3f 23 df 69 61 a6 84 ec bf
       1.110493933112992 -0.8911926176651587
0005a0 90 9a 0f 07 56 bd e5 3f 7f 1b fe 46 47 42 02 40
       0.6793623102101538 2.2823625131890704
0005b0 5a 33 04 eb a2 7b 01 40 1e 9f d3 c9 ad 6f d8 bf
       2.185369335237209 -0.3818163367236468
0005c0 63 b0 00 aa 5a 75 b9 bf 8b f9 e7 32 f4 b8 f0 bf
       -0.09944693232017836 -1.0451547611733953
0005d0 4f 36 3a a0 9a 08 01 40 82 de 28 4c e7 31 fc bf
       2.129201175476545 -1.7621834731088772
0005e0 1f 3e 46 f7 f3 09 d7 bf 15 97 7e 70 b2 a9 e7 bf
       -0.3599824824131889 -0.7394649693639815
0005f0 5a a4 07 ba 38 f1 f8 bf b4 c6 26 02 f4 ec f3 bf
       -1.55889198940192 -1.2453498920480515
000600 8b ee fb 97 11 7f f7 bf 59 44 f5 25 7d 77 06 40
       -1.4685226380233043 2.8083441701387923
000610 83 05 a4 f4 67 7e de bf e2 7e f2 5d c3 4c 99 3f
       -0.4764652146405625 0.02470689068706989
000620 ad b7 d9 d5 89 4b f5 bf 1a 3e bc 18 c3 54 f5 3f
       -1.3309419969113876 1.3331938711379565
000630 12 03 2d ff 8d ca cd bf eb f6 33 62 56 c2 e3 bf
       -0.23274397811658126 -0.6174728315379218
000640 ea 21 0e 1d df 96 e0 bf 95 f4 64 69 a5 68 10 c0
       -0.5184169356808159 -4.102193495547131
000650 af 85 8b 2b 6a ab aa 3f da 4f 82 e6 51 9e f4 3f
       0.052089040580323036 1.2886523250826856
000660 95 80 5b 7d 2a e8 f0 bf 37 d4 6c 54 db 97 ee bf
       -1.0566811463141097 -0.956037201779174
000670 39 3e b1 2d fa 48 f6 3f 0f 0a b8 e3 da f9 ee 3f
       1.392816713796391 0.9679998824724992
000680 aa fd d7 11 7e 6f ed bf c6 66 5f fc 08 ea 06 c0
       -0.9198599194059416 -2.864274951611921
000690 ca d6 db f9 cd a6 11 40 b4 38 68 5f 9f 71 f6 bf
       4.4128951111249055 -1.4027398802605093
0006a0 26 c4 19 20 29 4c f4 3f 5d 0a 57 e4 f5 62 e4 bf
       1.2685939077312098 -0.6370801410451566
0006b0 79 27 1d 20 41 67 ff bf 8c 4c c9 4e 82 ff 01 40
       -1.9627085928391053 2.2497602610761245
0006c0 f1 57 cd ca 36 8c db bf 22 3c 2e 05 c7 16 e1 bf
       -0.43043298535246693 -0.5340304471191113
0006d0 25 93 4d ce 10 1f 0a 40 44 e1 96 11 0e 91 b4 3f
       3.2651687734054513 0.08033836297443481
0006e0 dc d0 4b a8 33 d4 10 c0 91 60 1e 19 72 5c af bf
       -4.207228307368691 -0.0612521796858242
0006f0 5e bd 06 43 1b 16 06 c0 96 51 e4 bb 88 f7 05 c0
       -2.7607941852981375 -2.7458662680675827
000700 ac 3c f2 ed af 91 df 3f b1 ae 13 8b 3d 05 b0 bf
       0.49326704251229603 -0.0625799622100043
000710 9c ef d0 67 68 ba 98 3f 27 70 6d be 7e 10 01 40
       0.024148589455066025 2.1330542447231156
000720 c1 11 9a 05 c3 be 04 c0 cc 8b 0d 5c d3 c7 08 40
       -2.5931454122203097 3.097571105159181
000730 d8 63 cd 0a 3d fa d5 bf 6f b5 b6 90 80 36 e8 bf
       -0.34339834265625546 -0.7566531015815324
000740 ff a2 0f 08 3d ce f0 3f 58 57 a0 0f 95 0c ff bf
       1.0503511729131672 -1.9405718431857704
000750 08 fc 69 f5 54 37 f5 bf 8c 2f c6 dc 50 57 06 c0
       -1.3260087572559787 -2.79263470153632
000760 63 78 da c2 d3 44 f4 3f 06 3a 98 83 95 cb c9 bf
       1.2668035136662403 -0.20152539182204537
000770 c6 66 ca 5b 25 d9 e0 bf aa b4 66 f4 6e 06 e5 bf
       -0.5265070717607265 -0.6570353291951012
000780 f7 d5 5f ea b5 51 dc bf 55 78 13 0e 7d 74 00 40
       -0.44248721969719845 2.056879148453883
000790 f4 36 7b 1b 07 a6 f3 bf 51 a2 4a 5f 21 ae f8 3f
       -1.2280341218460622 1.542512294991088
0007a0 82 77 65 90 45 64 e0 3f 25 e5 dc 5d 5f 7d f3 bf
       0.5122402019730858 -1.218108526851503
0007b0 07 eb 71 6f 5f 11 0d 40 a6 58 a5 4c e7 82 e8 bf
       3.633482809700016 -0.7659794327726288
0007c0 f2 f8 89 dd 8a f4 f6 bf 43 02 5e d1 f4 b5 f2 3f
       -1.4347027448525833 1.169422929611884
0007d0 4d df 89 c2 4a 2f 00 c0 a7 c8 48 14 d8 5f f1 bf
       -2.023091811974075 -1.0858994285922934
0007e0 e5 11 a6 fc 67 bc ed 3f d9 4c 14 3e 02 e0 e4 3f
       0.9292488035721901 0.652344819306019
0007f0 91 46 21 a3 d3 31 f5 3f 9d ba 0a e0 09 d4 e5 bf
       1.3246647236123048 -0.6821336150950007
