weights/weights_layer1.npy (npy, 100480 bytes, 1 tensors)

array f8 [784, 16]
0	0xbfeb1c3cf5bc00e2	-0.8471970366954589
1	0xbfb1cd6987518190	-0.06954059175178018
2	0xbfeb40e8326b8166	-0.8516732201351658
3	0xbfa44688249df5a0	-0.039600614995815464
4	0xbfe8925133c3413a	-0.7678609858503826
5	0x3feeb03896d83bee	0.9590113588509419
6	0xbfdc194ce00e3f30	-0.4390442073863481
7	0x3fd53efdaea53ec8	0.33196966223929936
8	0x3fe5b93417aa6474	0.6788578474253328
9	0x3fe6399ebd592448	0.6945337007720207
10	0xbfde9627eb14e690	-0.47791479069892606
11	0x3fe9185b2644cb44	0.7842231509624544
12	0x3fd1df8d9549f394	0.27926959589950084
13	0xbfbe9dd0fc7fb0c0	-0.11959558643838175
14	0xbfde5a43b2c24068	-0.47425930458940124
15	0x3fb2194b368cd350	0.0706984527758554
16	0x3fdbf3bcd7510894	0.4367515661907728
17	0xbf9a273d7ce94140	-0.025540314434978173
18	0x3fd55d083dde5c14	0.33380323449949967
19	0x3fea0063784385dc	0.8125474308873737
20	0xbfee72b53f98c252	-0.9515024416087476
21	0xbfd7d182a0e52bbc	-0.3721624919168638
22	0x3fe19f49a894baac	0.5506943028065812
23	0x3fcf32356bad9a10	0.24371974714013378
24	0x3fee493fe4c359dc	0.9464415996579265
25	0xbf98ee6576dacd40	-0.024346909884753076
26	0x3fe3cd328252bac0	0.6187984986662158
27	0x3fe34ebc7f9acf48	0.6033613674430649
28	0x3fe62015b4bd3b44	0.6914166002332895
29	0x3fdeecdc35ba84fc	0.4832067990010527
30	0x3feef2c5064aefb0	0.9671349642662701
31	0x3fe0f5c6f3ec1798	0.530002094660392
32	0xbfe6cb385f02f3d2	-0.7123071532911303
33	0xbfebad72975794b8	-0.8649228053951878
34	0xbfdd52aa655bf680	-0.45817050836908635
35	0xbfe2fcd4554bcd24	-0.593362967103904
36	0xbfd0cf26199002a0	-0.2626433610567265
37	0x3fe4cd4d8e946250	0.6500613960989288
38	0xbfea5dc14703f846	-0.823944700910723
39	0x3fc8f1790e6ae050	0.19486916736582538
40	0x3fd6ab7d8de11468	0.35421694617645594
41	0xbfe3267ba15703be	-0.5984476233644427
42	0xbfcf2067acb05210	-0.24317642147129037
43	0xbfe7e337d39ebc5c	-0.7464865811542825
44	0x3fec11f0a3bf2806	0.8771899412324735
45	0x3fed6d8817edbb86	0.9196205584865857
46	0x3fee9520e70bbd0a	0.9557041657080003
47	0x3fea728be0fc6e60	0.826482715059182
48	0xbfd5497b4293d52c	-0.33260995389658166
49	0x3fd0b97e95ac4548	0.2613216840409973
50	0xbfd0041db08441bc	-0.2502512191577144
51	0x3fd6c1ea1927c46c	0.3555855985314966
52	0x3fe5cd3ee0cd79ae	0.6813043966938517
53	0x3feee0e8e25627d0	0.9649547978053707
54	0x3fe244d975aee78e	0.5709044741154103
55	0xbfe9eeac8de53012	-0.8103850146667375
56	0x3fe5361429a6347e	0.6628514111959161
57	0x3fea493d9dad7622	0.821440513576537
58	0xbfedd391c71f800a	-0.9320763482210179
59	0xbfd9bd35a35081a4	-0.40217343281440265
60	0xbfd1ffc2553a1e58	-0.2812352974219485
61	0x3fcbb6c835ca36d8	0.21651556612453393
62	0x3fee2881e7fc32ba	0.9424447565994207
63	0xbfc46631f194e7f8	-0.1593687467191669
64	0xbfef5a9387a04fc2	-0.9798066758107711
65	0x3fa5391e6583a560	0.04145140637576605
66	0x3fa753c8eac701c0	0.04556110254225443
67	0x3fe07a6a54156276	0.5149432794815556
68	0xbfe545c1096c168a	-0.6647648986842836
69	0x3fc5f95c38c96df8	0.171672370651194
70	0x3fc6dc4f4157ef28	0.17859831514930957
71	0x3fb0f5d87b0a9920	0.06625130657139211
72	0xbf95d44b265f2dc0	-0.021317648140934287
73	0x3fe4d0734da54b4c	0.6504456058995429
74	0x3fefc30dd9612d74	0.9925603147216138
75	0x3fef98ff26be9ee6	0.9874263531428056
76	0x3fc830b8ac967378	0.18898685862668763
77	0xbfc6a55bb2d7e150	-0.17692133171636693
78	0x3fe257693e8feadc	0.5731703016202476
79	0x3fe0a5444437faa6	0.5201741535564295
80	0x3fe4a31cbcfd8e8a	0.6449111644000862
81	0xbfda39fb10145cc8	-0.40978886194484376
82	0xbfa6ee6358c59860	-0.0447875066627581
83	0x3fe05cb97309e43c	0.5113188979004302
84	0xbfe1aacaa8348652	-0.5520985875375095
85	0x3fe89eee0859ae0a	0.7694006121723203
86	0xbfd7572ee1b5a694	-0.36469623605680934
87	0xbfe1820da271f4be	-0.54712564208571
88	0x3f9b1a1de6787d80	0.02646681517773919
89	0x3fe0ceddbff1eaaa	0.5252522229123617
90	0xbfdfb623240ff074	-0.49549177667336797
91	0xbf908aae7371df40	-0.016154027744476496
92	0x3fc332001582aae8	0.14996338892282002
93	0xbfe3f552a3878f76	-0.6236966318069637
94	0xbfe95332561c6458	-0.7914058381894717
95	0xbfb8eb81ef13ef70	-0.09734356009351841
96	0xbfda6c6ce982369c	-0.41286776355341614
97	0xbfa64445f8c8c540	-0.04348963415066942
98	0xbfec12a3f00d9a2a	-0.877275437215592
99	0x3feaa96fd2293fb8	0.8331832031926671
100	0x3fd4aa8c1bcb6c0c	0.32290938104932887
101	0xbfd574dfd1e55720	-0.335258440948893
102	0x3feacabfaece4544	0.8372496046232887
103	0x3fe7838d8d63e42c	0.7348087083365775
104	0xbfeaec76c515ec12	-0.841365227635267
105	0x3fd4f196dc2d523c	0.3272454404989593
106	0x3fd0bd4c8edd2aac	0.26155389739566703
107	0x3fef612d4f474c9a	0.9806124256523561
108	0xbfca404091fcf8f0	-0.20508582237557205
109	0x3fe83b42020318e4	0.757233623437767
110	0xbfdb36ebb8681ba0	-0.42522709854568497
111	0xbfdcddfc47cbdd4c	-0.4510489178787409
112	0xbfe2a85ff4b5cf70	-0.5830535678382898
113	0x3fd906db3f6dd9dc	0.3910434836792811
114	0x3fba5f9fdd5569e0	0.10302161363271223
115	0x3fbf2e7e27d2d770	0.12180317375427108
116	0x3fe9b03e95c418ec	0.8027642178647318
117	0xbfde69bafb6f5870	-0.47520327142900154
118	0xbfceddf485ba1ba0	-0.24114853410375492
119	0xbfdb57a88fa652f0	-0.4272252466992503
120	0xbfd7dc6877d4c354	-0.37282764150864023
121	0xbfd3b317b30f1d64	-0.30780594335779754
122	0x3f8cc4e94a8ba080	0.014047453486867534
123	0x3fe85579fb1056ec	0.7604341415014608
124	0x3fd46c3e33b72190	0.3191066269905827
125	0x3fb03f2f3b4f1c50	0.06346411893820059
126	0xbfe62c464371021a	-0.6929045979705422
127	0xbfee4a71c845d558	-0.9465874587610115
128	0x3fccaa484e1dea18	0.2239466077260921
129	0x3fc9198a606736b0	0.19609193522631108
130	0xbfe3ac4e3ac1b056	-0.6147833964910301
131	0x3fef2d6e59b842b4	0.9742957832659926
132	0x3fe7930e4f71fe3e	0.7367011596360908
133	0xbfe280afcffe3b40	-0.5782088339200087
134	0xbfe65e07ac79e64a	-0.6989782684970092
135	0x3fbb952d2d6a9820	0.10774500235365325
136	0xbfed80eadc742a24	-0.9219869905221612
137	0xbfe5eb4af259dd74	-0.6849722608011874
138	0x3fe4b16d7da37e98	0.6466586545829669
139	0xbfd03a818448ec78	-0.25357091825907885
140	0x3fe34c898fdfcfc2	0.6030929384273735
141	0x3febd10c091c482e	0.8692684343279831
142	0xbfe45862b74b405a	-0.635789258953092
143	0xbfec2418ba3ee8bc	-0.8794063222515187
144	0xbfe2942f931b07bc	-0.5805890916019432
145	0xbfc522e30a3eb130	-0.16512716293562724
146	0xbfb89cd134636130	-0.09614284066208678
147	0xbfebf8c9bda178b2	-0.8741196349835916
148	0xbfd5642e893e6b74	-0.3342396106979131
149	0xbfe5caa629930644	-0.6809874355314567
150	0x3fce200d897122a0	0.23535317622215235
151	0x3fe1dc620bbba71e	0.5581522206459544
152	0x3fe2dc3d643b5dd2	0.5893847425131133
153	0x3fe3e056d73267a2	0.6211351588310559
154	0xbfdff1c74968cad4	-0.4991319863212713
155	0x3fd1b7ec76d99380	0.2768508110660193
156	0x3fa47349150cc1e0	0.03994205839115117
157	0xbfe9e990d29b69fc	-0.8097614396495483
158	0xbfc2c6063364a2d8	-0.14666821965626897
159	0xbfd106c72f5a2b8c	-0.26603870033493915
160	0x3fdf4b5f1917b9e4	0.4889753098531442
161	0x3fee259bf7b7df7e	0.9420909727332256
162	0x3fe945a6fb4f20a2	0.7897524746304223
163	0xbfedc59b00c1cdea	-0.9303717627321337
164	0xbfdfd92393eb8f2c	-0.49762811131789664
165	0xbfec9a1daba23744	-0.8938129760951843
166	0x3fe5c8eaa2cc2b8e	0.680775945629067
167	0x3fd7af1923a2cd44	0.3700621459967872
168	0xbfcee95f547c0df8	-0.2414969599268344
169	0xbfc5e902b1f2a5a8	-0.17117341698512445
170	0xbfe9019cce281492	-0.7814468409057034
171	0x3fe36d7b0a0988c8	0.6071143337287817
172	0xbfe8a173d8c06986	-0.7697085603170286
173	0x3fe04e29b1818de8	0.5095413653293095
174	0x3fdc7e03c02a6f54	0.4451913239115488
175	0x3feb3888ca829aae	0.8506511645581065
176	0xbfe8ad9bd78bf5e4	-0.7711924753090753
177	0x3fe26b9631c047ee	0.575633141679871
178	0x3fb79422ea0778c0	0.09210413182833843
179	0x3fe3f4bd55ef3952	0.6236254385383211
180	0xbfe0056d83b5d33e	-0.5006625721422109
181	0x3fda929a797963f0	0.4151979624053288
182	0x3fbfadb60a4407c0	0.12374437094334123
183	0xbfd8399f978c2e3c	-0.37851705360001
184	0xbfc459c465c3df78	-0.15898947686195775
185	0x3fd21b79f0891eac	0.28292702188307817
186	0xbfec0b4c36982daa	-0.8763791147516049
187	0x3fdc8c968fe68828	0.4460808186796634
188	0xbfe193d26d4a445e	-0.5492946753094079
189	0xbfd6963b3f61a158	-0.35291939916216597
190	0x3fd6426fd545e7cc	0.34780498340080324
191	0x3feb0970a53fc9aa	0.8449023463747853
192	0xbfe1eccc6abbbcc1	-0.560156067336628
193	0xbfea913296f340a9	-0.830224318337078
194	0xbfbda4a2e20cbde4	-0.11579339999001764
195	0xbfeae75cf03e0fa1	-0.8407425586924441
196	0xbfefbc6ca19aea32	-0.9917510181761087
197	0x3fe49b95a2753919	0.6439922497754963
198	0x3fd471646f9edb71	0.31942091846888504
199	0xbfccd504e27082a7	-0.2252508264218893
200	0x3fef60170d118df1	0.9804797415967511
201	0x3fec0952aee4acf2	0.8761380592235624
202	0x3fe7f002628e9ad0	0.748048012251127
203	0x3feb2fb602f67a6f	0.8495740945689486
204	0x3fe71833a9344e06	0.7217043213626659
205	0x3fefa8a49134386c	0.9893362842574454
206	0x3fede65f4eba7bf5	0.9343716180482021
207	0x3fe415398f193720	0.6275909228222396
208	0x3feff27aed521cee	0.9983496318026519
209	0xbfdd286815390709	-0.4555912215474654
210	0xbfa6a5e15aef5269	-0.04423431620640345
211	0xbfe2bb213c559a4c	-0.5853429964452714
212	0x3fddaa8d7a819db8	0.463534707675048
213	0x3fe8703cfafda252	0.7637009527362102
214	0xbfe44514f92930a9	-0.6334328524040035
215	0xbfce19d794f8af2e	-0.23516363882060304
216	0x3fe9505337c3c6ff	0.7910553063540816
217	0x3fddbc7844c9bf29	0.46462828366837755
218	0x3fd22c68fe99e5a4	0.28396057952303466
219	0x3fdbc757e788b82d	0.434041954143029
220	0xbfd4df94e46ec9f8	-0.32614633853805186
221	0x3fc144d4e00887e9	0.13491307200553074
222	0x3fddf9751eddcb63	0.46835067762656574
223	0x3fc7ffe6d4cfa8e5	0.18749699965639546
224	0xbfe0749b1c9fc847	-0.5142341193261551
225	0x3fbe384a02299e77	0.11804640343472693
226	0xbfd1b428047a336f	-0.2766208690380187
227	0x3fdb842a738e92d2	0.4299417618260978
228	0xbfea117a9c9a3c13	-0.814633661140649
229	0xbfeefccfaad6e0c5	-0.9683607422548667
230	0xbfe4c9c8130a4ce7	-0.6496315357093437
231	0xbfcbb4b91a40c176	-0.2164527300060503
232	0x3fee40c25ec82c82	0.945405182953792
233	0xbfea292eee579738	-0.8175272612686291
234	0xbfe8328a3bbc0ea7	-0.7561694304171923
235	0xbfecd2e86eba46db	-0.9007455980920115
236	0xbfd998e071e159e6	-0.39995585557099245
237	0xbfeed125e8da245b	-0.9630307720082202
238	0xbfedacd0c47b6eb9	-0.9273456418554452
239	0x3fd839fe9d0cd015	0.3785397084895988
240	0x3fe723b25567409c	0.7231074970277578
241	0x3fdad60e8137aaeb	0.41931498164073727
242	0xbfcac85411eea26e	-0.20923853755563776
243	0x3fe91bfc79b0af36	0.7846662880669786
244	0xbfece9148362be9a	-0.9034521642806397
245	0x3fedb20314b450f4	0.9279799847013508
246	0x3fe50e87965903d9	0.6580236374357994
247	0xbfd53b2f4a776bc6	-0.3317373492442893
248	0x3fcc3693cdcd9f48	0.22041556881890245
249	0x3fdaf0b30a9e9f40	0.42094112431594866
250	0xbfe51d7e3fa93687	-0.6598502391222646
251	0xbfe14d7ae8f08792	-0.5407080220795584
252	0xbfe731484668af0e	-0.724765908734726
253	0xbfec3d7b666fdd66	-0.882505130836688
254	0x3f5200621e44aa74	0.0010987241922274767
255	0x3fed35032e3ef0f1	0.9127212432136088
