weights/weights_layer3.npy (npy, 1408 bytes, 1 tensors)

array f8 [16, 10]
-1.4107324925967828 -1.1199430467510878 -1.1143355765684715 -2.4165764111645935 1.13211800776719 1.0883861637306025 2.6014222935454003 0.8356729958481222
2.991728354866187 -3.475965989716198 -2.232735948598354 -1.6344501725022997 -2.981962533747771 -1.2202257604763802 4.01618932214861 -2.6094202176552064
-1.7765616850853063 2.431723975302091 -2.990473792869277 2.7306667834363827 1.9122486454512932 -2.0984330026428726 -3.602627937201064 -2.1453826570284646
-1.5167477032312102 5.254122993055042 2.7821555821895285 0.4604296405826718 -3.8164620224477632 -1.8286986598842236 -2.403424967186132 1.6171573734402067
-0.21450914265390042 1.2086371691242033 -2.7196231243685864 0.7151840290444718 -3.5335229259673637 2.1909999216323266 1.3065388954101116 2.69457583828704
-3.1176819952734736 1.8025795449093074 -2.419115144375139 0.07612094231926213 1.6952063029011128 0.7507036664732425 -2.3591678400028435 0.13393807939925062
-1.2552939246612995 0.45584671428425205 -1.5455816216206129 2.1669517500370525 1.899798774505791 -2.497736154841515 3.88308213809394 -2.7996016764220424
1.793777581887819 -2.2952021339576145 -2.0590414563404162 -1.125293435081659 2.478867567837986 -0.6924384310187627 -1.5436077588528907 -1.6947595721685103
-1.0192226277639753 0.8042466313503945 -1.2012931491334158 -1.6134105947012634 1.306962679084292 1.0245471403676119 0.9329270840261803 -0.5174452529381282
0.6468367709489385 -0.07039853548198896 0.0040857558411040076 -0.3662914188517817 0.3707079616202077 -1.026939172315133 -0.11084909989235353 1.2355948977576519
0.4052608441511951 -1.8030161514241514 1.5971298851188376 1.1071828111375988 0.1938833020050067 -2.686974978524861 1.6586786642140632 -4.710384147939882
3.76169627605686 3.190447368322612 2.0923446332016318 -1.9017813118411486 -1.4497080048633184 -1.4825236701435585 2.0976769376252897 -0.1410959868603101
-1.826792732221206 -0.8734569153146375 -0.9463120370029376 3.0511203883876945 -1.6466487887370438 3.157047426216896 -2.810055876644087 3.268592758770417
-1.6684958629273803 2.5219797705610145 0.4766879162510743 -3.207084495586873 -2.704128778693706 -0.1954099843400332 2.1169354763711627 -3.95120965927281
-2.1718706155332774 3.5661602469608646 1.405713666852721 0.6912976964002656 -1.5292168675252087 -0.2832695499449551 0.7279815138977478 -0.5721042887769939
-1.0780114979347726 -0.1217254866992229 -0.9130650595279272 -0.8152030813097332 -0.25423135555426574 -1.0987265890628142 -0.5792779036154475 -0.02111454681284988
0.0587680506237121 -0.3052127395889994 1.551724287664692 -0.02742390379302422 0.9391688297721631 -1.0051880327310612 0.44597417934116745 -1.45741577750921
-1.0566386267408294 -1.2226389793248487 -1.2224940933559987 0.6862824651631 0.9536531202638121 -2.157594690696367 0.6891038801439906 -1.4762816831284442
-2.5445720844363744 -1.9159919089587034 1.35129517255584 2.5177552849953173 -3.314041389653534 2.046818661718278 2.713232003743588 -1.967936221436037
3.0708823488653416 3.441901330434884 -0.27650991279435316 -2.2946749171822565 -2.470651313695345 1.5320251268799918 -2.487643996846781 -3.9775876377847834
00000000: 52b9 f13b 5c92 f6bf 39db 7266 49eb f1bf
00000010: 1f18 a28a 51d4 f1bf 55e5 7103 2655 03c0
00000020: 012a a9c5 271d f23f f944 2a9c 076a f13f
00000030: 07e7 ce7d b6cf 0440 4a2d 6a4b d5bd ea3f
00000040: 4954 9546 0fef 0740 f9b6 be41 c7ce 0bc0
00000050: f1aa 3eaa a4dc 01c0 486c 5d39 b526 fabf
00000060: 75c0 422c 0fdb 07c0 7ab9 6f72 0b86 f3bf
00000070: d5b0 04ef 9310 1040 71cd 02b5 17e0 04c0
00000080: e649 0cf2 cb6c fcbf 9f92 16b3 2b74 0340
00000090: 5759 1f86 7dec 07c0 ee0f 99d3 67d8 0540
000000a0: a489 2009 9298 fe3f f495 f93d 97c9 00c0
000000b0: e179 8f98 2ed2 0cc0 23be ea61 be29 01c0
000000c0: 1e94 5a3d 9944 f8bf 0955 61d1 3804 1540
000000d0: 591a 2fc9 da41 0640 d057 1ae2 ad77 dd3f
000000e0: 9ab6 a63d 1d88 0ec0 7b11 a786 5942 fdbf
000000f0: 6da2 83de 363a 03c0 3d93 f668 e0df f93f
00000100: b41c 321c 0975 cbbf 45e5 a1ed 9356 f33f
00000110: 0bde c4c4 c9c1 05c0 bac2 eb9d c9e2 e63f
00000120: 8691 f5aa a744 0cc0 6298 87f7 2a87 0140
00000130: 76d0 2b54 95e7 f43f e846 f0c6 7d8e 0540
00000140: 8438 0842 03f1 08c0 432f 1da6 5dd7 fc3f
00000150: dccb 720a 595a 03c0 7f4b cd7d a97c b33f
00000160: 00ef eea4 901f fb3f 00ad 0fb2 c305 e83f
00000170: 88b2 7463 93df 02c0 08bb 5a0b e224 c13f
00000180: b49a 1415 af15 f4bf 3ac1 75b2 972c dd3f
00000190: ff8b 62cb b3ba f8bf 555a 93cc ea55 0140
000001a0: 65bb 5766 9365 fe3f 17a6 d817 5dfb 03c0
000001b0: a15c 365e 8d10 0f40 bf79 5090 9565 06c0
000001c0: 2b19 281f 50b3 fc3f 7c75 b8ef 925c 02c0
000001d0: efb8 20ba ea78 00c0 8144 61b0 3301 f2bf
000001e0: 6dd5 f784 b8d4 0340 2d03 f7a3 7428 e6bf
000001f0: 1500 a20c 9eb2 f8bf 4cbf 9036 bc1d fbbf
00000200: 696e d962 bc4e f0bf fb2d 726e 63bc e93f
00000210: 6dfd 462a 7f38 f3bf 7c30 b4a0 87d0 f9bf
00000220: 3b27 bcb2 51e9 f43f 6c6d d18a 8b64 f03f
00000230: 2a3e 6ee6 89da ed3f e4de da58 e98e e0bf
00000240: 0d6e 2207 e3b2 e43f 22d9 946f a305 b2bf
00000250: d6c2 78bb 39bc 703f 9986 3190 5171 d7bf
00000260: aea3 e1e2 adb9 d73f 6732 01c5 576e f0bf
00000270: 6425 d44a 9b60 bcbf c793 cf27 ffc4 f33f
00000280: 9ca3 fe2d cbef d93f 9a6c c876 27d9 fcbf
00000290: 58cb 0011 d88d f93f 2478 c852 05b7 f13f
000002a0: 2c0e ad04 2bd1 c83f 057a cfbc ec7e 05c0
000002b0: 37f5 95a3 f289 fa3f 96fe 2bf1 6ed7 12c0
000002c0: 9131 9937 f417 0e40 6870 1445 0986 0940
000002d0: 3b7f dc2e 1fbd 0040 0207 a83d b26d febf
000002e0: a232 5a05 0132 f7bf e6ff 6cbd 6ab8 f7bf
000002f0: 7564 a5d8 0ac8 0040 68b8 94ec 6e0f c2bf
00000300: 7a5e 1704 8b3a fdbf a1b9 b7ea 5bf3 ebbf
00000310: eaa3 572e 3048 eebf 9045 62ce b168 0840
00000320: 55fa 7966 ac58 fabf 2a2e bc14 a241 0940
00000330: a3f3 5093 fe7a 06c0 10e4 d6f5 1326 0a40
00000340: e48c ccb7 28b2 fabf 79dd ddba 032d 0440
00000350: 9297 ac08 0e82 de3f 286f 80ea 1ba8 09c0
00000360: 8c4b e544 0ea2 05c0 40b2 06c2 3103 c9bf
00000370: f40c f6dd 7bef 0040 6aba 51cf 139c 0fc0
00000380: dbde 86b3 fd5f 01c0 05f0 0706 7f87 0c40
00000390: 48c3 2a9d cd7d f63f 5ddb ba58 1c1f e63f
000003a0: 8732 281b ac77 f8bf 90d6 3d9b 1621 d2bf
000003b0: 9511 49e3 9f4b e73f 595a 46a7 ad4e e2bf
000003c0: 1878 05fc 883f f1bf 087d 76c8 6629 bfbf
000003d0: 215e 3937 d437 edbf 055c bac5 2416 eabf
000003e0: dd4a 6e97 5345 d0bf a253 f454 6294 f1bf
000003f0: 775c 6ad0 7189 e2bf e7cb 1f40 0d9f 95bf
00000400: 0800 f58e d816 ae3f 48de b603 9b88 d3bf
00000410: 27dc bed8 dcd3 f83f 0dc3 ad07 0315 9cbf
00000420: b568 29ca ab0d ee3f 5991 ee0b 4015 f0bf
00000430: 425e c848 d78a dc3f 3839 d134 9351 f7bf
00000440: e8ac 98e7 fde7 f0bf a03d f0e3 ed8f f3bf
00000450: 6446 68f7 558f f3bf 6533 f6a4 06f6 e53f
00000460: 9e5d 688c 5384 ee3f 5783 5401 c142 01c0
00000470: 0e7c 9894 230d e63f 2e87 cb8a d99e f7bf
00000480: 0fc0 e79b 485b 04c0 460d c621 e7a7 febf
00000490: 8feb d5af e79e f53f a016 03e2 5c24 0440
000004a0: f437 d121 2883 0ac0 4361 6776 e25f 0040
000004b0: 6850 14fb b2b4 0540 cee7 fab0 aa7c ffbf
000004c0: 25ec d1c3 2a91 0840 b736 9290 0389 0b40
000004d0: 052e 1ea2 56b2 d1bf 91fe e185 7e5b 02c0
000004e0: a720 01d6 e4c3 03c0 d898 89c7 2c83 f83f
000004f0: 9761 54e5 b1e6 03c0 8913 aa77 19d2 0fc0
