weights/weights_layer3.npy (npy, 1408 bytes, 1 tensors)

array f8 [16, 10]
0	0xc00f127276ba2d53	-3.8840073848311163
1	0x4001425ec3786134	2.157407309638211
2	0xbffc75629273b8ee	-1.7786584587843737
3	0x4002fc24163e2ae7	2.3731157052728693
4	0x3fed8516997fd606	0.9224961278948178
5	0x4002547c16d6b04f	2.2912523063915056
6	0xbffc4a7bc4b083b5	-1.7681844409164402
7	0x3fb294de1fb9b2d8	0.07258404039903199
8	0xc00f864abf5cb57c	-3.940572257057907
9	0xbfd0f2af9c4cc008	-0.26481237662937973
10	0x3fc629ae67a73403	0.17314701138676022
11	0x3ff8655c0074d124	1.5247459428620198
12	0x3fdbf6fd5ef2913a	0.4369500567647894
13	0x3ffe12da350e90ca	1.8796026299033195
14	0xc016218f31ae0e38	-5.532772804497249
15	0x3ffcc8dbfcadc296	1.7990379209769904
16	0x3fe4a1fb1c886759	0.6447730595857407
17	0x3ffcbf9088025b5b	1.7967686951503399
18	0x3ff2d7dd4f1d73ad	1.1777012911254403
19	0xc010d8b996c5b6ef	-4.211645465676823
20	0x4005621f8e8a1d2f	2.6729117523097083
21	0xbfd662480113f2b1	-0.34974861245408834
22	0xc003d39d6a1aad5a	-2.478327588023302
23	0xc00fc709733525ab	-3.9721859932512493
24	0x3fe5857490b5455a	0.6725409342126725
25	0x3fcac4e1dd1760b9	0.20913337035631743
26	0x40063e6f36e4cb4c	2.78048556218838
27	0xbffef22184e47021	-1.9341139975649713
28	0x3ff8d6b4191f537c	1.5524178487150655
29	0x3ff3885e5e96d4f2	1.220793122757922
30	0x3fef66afe059cb5f	0.9812850362635394
31	0xbff504041cedcc46	-1.3134804849658095
32	0x3f87c5592665c9b4	0.011606880649854691
33	0x3fe560d7d692ba18	0.6680716696626545
34	0x4004ef6b24b4cd61	2.616903578536651
35	0xbfccc4da2706847e	-0.22475745111026763
36	0xc002b7be9ff19f31	-2.3397190566646704
37	0x3ff0df09f6e9cb19	1.054452862267402
38	0xbffdb084a0bfba17	-1.8555952338462072
39	0xc00bcb5cbb7471dc	-3.474297966471779
40	0x3ff22a22503024c4	1.1352866299005635
41	0xc00da4512699b13b	-3.7052329078343553
42	0xc0003e539348c679	-2.0304328447899107
43	0xbfd18b838ad75d25	-0.2741402488586167
44	0x3fc78c157371993c	0.1839625180902632
45	0x3fea2411685e83d7	0.8169028318844721
46	0xc006d9ea790f942c	-2.856404252803733
47	0x400436151a9f77ac	2.5264074401774987
48	0xbffa69a729a8db65	-1.650794184429935
49	0x3feadde3b67cfd0d	0.8395861210082401
50	0xc0051192b37e4117	-2.6335805914788
51	0x40017fdb05d5b1ff	2.1874294715728406
52	0xbfa593399af5a5f7	-0.042138862768137324
53	0xc00441ddf772276a	-2.5321616489135765
54	0x400177909803ea0f	2.1833812595552966
55	0x400a630b8aa30d84	3.2983618575105442
56	0x3fea7f5025271fd5	0.8280411458626938
57	0xc009ce2502ca607b	-3.2256565301905176
58	0x3fe19fbdf238e862	0.5507497530845848
59	0xc00384183f867800	-2.439499374667321
60	0x3ffe29bb8990dd98	1.8851886151950108
61	0xc00a38bcfac70699	-3.2777041999805303
62	0x40083b4cdabd8c63	3.028955181989248
63	0xc008725c564c6259	-3.055840181547222
64	0xbfe3b49f3d527d2c	-0.6157985875796945
65	0x3ffffa69cda4aa82	1.9986360581339402
66	0x3ff9da1c30c9cd9f	1.6157495408814169
67	0x3fd6797e36171e87	0.35116534502274316
68	0xc0091989390a79aa	-3.1374687630006592
69	0x3fd40e8750930fa9	0.3133867537364901
70	0x3fe3a2e55625da2f	0.6136347467971229
71	0xbfcf70da9caa49b4	-0.24563152932803478
72	0xc00c3c5e5f4a6051	-3.5294768757412744
73	0x3feed8bc2f38a058	0.9639569208420751
74	0xbffda0ac521a52c3	-1.8517268378392806
75	0xbff24c53aaecdf0c	-1.1436344792145432
76	0x3ff3a792e5eae7f5	1.228411577335007
77	0x3fefb3bbfe20b787	0.9906902278359987
78	0x3fe2b261c97e7e9e	0.58427514414139
79	0x3fa6c888be699c4d	0.04449870418903199
80	0xc00cc7ca8518c7af	-3.597554244822241
81	0x3fcd74e61cfbd4e0	0.23012997069569163
82	0xbfe9070a6cd56cf3	-0.7821094632776336
83	0x3fe83205d8bd2df2	0.7561063035186051
84	0x3fc393c1802370ae	0.15294665104636834
85	0xc00939d7bec4ed5a	-3.1532435325477026
86	0x3fb82479d2dc113d	0.09430657766285307
87	0xbff5190d0ef582bc	-1.318615969117828
88	0x3fea1f6a1fb87dc4	0.8163347835106198
89	0x3fe9e57baea60378	0.8092630778411225
90	0xbff8ab6783209742	-1.5418467638168782
91	0x4004dfd11e25c2df	2.6092855792306717
92	0xc002bcba2c9de576	-2.3421519742666375
93	0xc006be8f47b91cb8	-2.843046722733188
94	0xbff9f875f989d8b6	-1.6231593844982348
95	0xbff9a33814f37d92	-1.602348405685778
96	0xc0024af2bca672a0	-2.28659579642256
97	0x4011b3b1630517b5	4.4254813644274025
98	0xc0013159a9ece7a5	-2.14909680132128
99	0x400eafde565f0fa9	3.83587329366306
100	0xbfe56d84eb1d89dd	-0.669619044503914
101	0xbffe507efa6344c9	-1.8946523457309914
102	0xbfe66422946fc6cc	-0.6997235201981424
103	0x3ff739cbc6f47051	1.4516103526757613
104	0x3fc5943a5c4f725d	0.16858605868664514
105	0xbfd4b2c8373ee9e8	-0.3234119929799406
106	0x3fdb0c41c7c0fd38	0.42262310511792434
107	0xc01107033c27dedf	-4.256848277982242
108	0x3fc9b694c7432c6e	0.20088443498238767
109	0x3fff897ecb326aa0	1.9710681855564545
110	0x3fe58afe33f43447	0.6732169165349057
111	0x3ff90b9b00b99f56	1.5653333690952045
112	0xbfe5d6a6728231cb	-0.6824524151320984
113	0x3f918adb9ad66387	0.017131263089683848
114	0xc0096d6b35138425	-3.1784271380024784
115	0x3ff99dd6d3233aea	1.6010349509776298
116	0xc0123be12be08cf3	-4.558476148205261
117	0xc002719c7046e389	-2.3054741641648815
118	0x40082f55b9b4a809	3.0231127269989924
119	0x3ff807f90d95d17a	1.5019464998887018
120	0xc00000575311152a	-2.0001665582264154
121	0x400504e6c25671d2	2.627393263114052
122	0x3fe9f05b2b48071b	0.8105903477992088
123	0xc00333e7f0510563	-2.4003447317815456
124	0xbff5d32836000177	-1.3640520200134156
125	0xc0055df574da1f52	-2.670878327280584
126	0x400215b3ac53e92c	2.2605966055972626
127	0x3fd91bfe5cdc2c7a	0.39233359402050605
128	0xc00df7ccd914809b	-3.7459961852437806
129	0xbff6aefb2f834b60	-1.4177200180026475
130	0x3fed1120c4c66da8	0.908340820623768
131	0xbfe79d83ae367388	-0.7379778292266659
132	0x3fbab3041c063f50	0.10429406818570652
133	0xbffeb0875614f87d	-1.9180978167128437
134	0xbf87970d424f4f8d	-0.011518577180971845
135	0xc0103f3a271ebbab	-4.061745272875593
136	0xbfe4afd9a183f053	-0.64646607919668
137	0x3fcc4f223401c6a6	0.22116496600533714
138	0x3fdf7767ac89b1db	0.49166290139581087
139	0xbff3e06bbbb51458	-1.2422902424161943
140	0x40094805674c9bc0	3.1601665563825634
141	0x3fdc4facd2b6b00a	0.44236298158170995
142	0x3ffa8051a647519d	1.6563278670556436
143	0x3fffa875b44aacde	1.9786278765339413
144	0xbfebab156afa37a4	-0.8646342362787789
145	0xc0084a6c99cb19a0	-3.036339952002166
146	0xbf99176238844f61	-0.02450326414061921
147	0xbff91601fc7f8bfe	-1.5678729880535225
148	0xc0093ca8b0dcd3de	-3.1546186272994268
149	0xbfdf2391eaa6deff	-0.48654601969927563
150	0xc001ccc09fcc81d1	-2.2249767765317547
151	0xc0016f4aa67f73de	-2.1793416030545663
152	0x400d5dcb9bd58f8e	3.6707985090778896
153	0x3fe505e2721737cc	0.6569683292707338
154	0x3fe27a6b7ce36d15	0.5774438323236689
155	0xbff399c5305605b7	-1.225041569531056
156	0xc007404129f2b6cf	-2.906374290198847
157	0x3fe76c55dcdc53f0	0.7319745362934764
158	0x3ffd9f5d1ec0a37a	1.851407165648395
159	0xbfeb36688dc811c7	-0.850391652028116
