weights/weights_layer1.npy (npy, 100480 bytes, 1 tensors)

array f8 [784, 16]
000000 f0 0c 0c be 00 ac bd bf ca 34 cd c4 93 2a e5 bf
       -0.1159058059675322 -0.6614474147587768
000010 ce e2 6a 37 ba 02 e2 bf f8 8b 0b 2d 67 f5 dd 3f
       -0.5628329355596067 0.46810321234642016
000020 3e a4 0f da ec 70 eb bf 7c b5 b7 24 d1 1c eb 3f
       -0.8575348147397859 0.8472676961079482
000030 00 a6 fc 44 eb fe e5 3f 82 86 3d 4c 58 0f ee 3f
       0.6873680446053072 0.9393731583661096
000040 24 09 9a 0d 67 bd db 3f d0 0a 1f a9 ba 0c da bf
       0.43343521431246956 -0.407026925237159
000050 88 11 38 2d 00 5e db bf 88 9a 56 ba 58 53 ef 3f
       -0.4276123468009918 0.978924144689544
000060 de 26 20 9f 7f f5 ee bf f0 cc d9 52 e4 7f d8 3f
       -0.9674680812761058 0.38280590144059
000070 60 67 e3 08 61 0a c2 bf dc 3c 4f c4 be 50 e0 3f
       -0.14094174322127184 0.5098565897150382
000080 d4 98 7a 62 9b 0d e5 bf 88 b2 de a5 6c ce ec 3f
       -0.6579110072532566 0.9001982917448723
000090 3e bd e0 95 a4 f4 e0 3f a8 ea 95 88 39 a1 d7 bf
       0.5298636367132656 -0.36921537722052244
0000a0 fc 5c 28 41 e8 ad d5 bf b2 af b2 9e 22 16 ec bf
       -0.33873945582440945 -0.8777020549364265
0000b0 b4 27 c4 17 39 ce e9 3f f8 a7 82 67 22 53 d9 3f
       0.8064237083610721 0.39569912060198886
0000c0 80 de 6b c5 28 81 a1 3f f8 fc ad 01 bd 63 c8 bf
       0.034188531970298364 -0.190543771572244
0000d0 3c 54 0d 74 e5 da dd 3f bc 66 6f d9 2d be ef bf
       0.4664853699990237 -0.9919652220516677
0000e0 94 f1 3d 3f 81 f4 d5 bf 60 3d cd 0c 80 af d3 3f
       -0.34304839302037604 0.30758668184440374
0000f0 f0 1d 9d 92 7b 9d e9 bf c0 37 a6 16 f7 c9 c4 bf
       -0.800473963122327 -0.16241348844454073
000100 00 87 9a 68 23 2f 9d 3f 6c a6 d0 21 90 6e e9 3f
       0.028500130900858345 0.7947464619112004
000110 76 06 de b6 f8 b6 e1 bf b4 b6 9c 68 ce bf de 3f
       -0.5535853931070978 0.48045692649871374
000120 04 5b 74 c1 82 9d ee 3f 80 e5 92 72 fb 56 a5 3f
       0.9567273882301781 0.04167924665075429
000130 d8 bc ac 5a 2c b0 cf bf 40 0c a6 aa 88 a2 af 3f
       -0.24756388118246409 0.06178690989602176
000140 7c 15 d2 40 97 5d d2 3f 3e a6 64 0c 25 ca e2 3f
       0.28696233110561997 0.587175869183916
000150 00 88 e2 ec 36 61 4f bf e8 cf b7 f9 5f 39 c7 bf
       -0.000957633799562041 -0.1814384431196452
000160 a8 4a 19 35 9a d6 e9 3f 90 9e a3 ac 6b 5f cd 3f
       0.807446578701577 0.22947450570722028
000170 86 c1 7b ab 13 a6 e7 bf a4 97 b4 05 59 e5 d2 3f
       -0.7390230511937694 0.29524827534839404
000180 32 ed 29 73 6b de e9 3f f8 01 2e a5 dc d7 ef bf
       0.8084008454601757 -0.9951003290335043
000190 ca 3d 14 7c 8c 56 e6 bf 98 6a 56 19 81 84 d5 3f
       -0.6980650351924222 0.33621242021914943
0001a0 a0 b3 9a f6 df 90 ea 3f 8e c0 e9 d4 36 17 ec 3f
       0.8301849190225887 0.8778337629755855
0001b0 3a af 81 e8 61 cd e7 bf 70 5e 27 42 a1 e6 cb 3f
       -0.7438211003440991 0.21797576646962424
0001c0 06 13 c6 0b b7 4a ee bf a4 71 e1 fc 45 84 d5 bf
       -0.9466204862552281 -0.336198327020407
0001d0 ba 1a cc 6a a3 54 e9 bf 5c 06 5a 24 61 72 ea 3f
       -0.7915818296322279 0.826462336539588
0001e0 20 96 6d b8 44 04 ab 3f 92 8f e3 ed 00 62 ea bf
       0.052766940606300716 -0.8244633337276233
0001f0 5e b6 ed c9 1b e3 e7 bf fc 4f bc 05 c7 da e7 3f
       -0.7464732116620316 0.7454562294028615
000200 c2 15 33 cb c9 2a e0 bf a4 67 d1 c1 c5 71 d0 bf
       -0.5052231758824564 -0.2569441216234003
000210 e8 fd a6 85 0d 40 c4 bf 96 31 16 dd 3c 13 e8 3f
       -0.15820473695747173 0.7523483579730506
000220 ac 27 ac e7 74 d2 d3 bf c8 ca 64 28 e3 31 c4 bf
       -0.30972025512948664 -0.1577724406466443
000230 78 6d a9 9f a2 c1 c7 3f de f8 2c 11 be 0e e9 3f
       0.18559677883136394 0.7830496154272415
000240 22 88 d5 fe a9 0c eb 3f f2 c8 58 3c f9 bd e9 bf
       0.8452959038952523 -0.804440133919597
000250 c8 83 20 22 a4 3d c8 3f d8 74 2e 50 b4 33 d0 3f
       0.18938113848073912 0.2531557829878017
000260 cc 22 ac 12 b6 a1 d3 3f 58 37 db 8f 6d 81 e2 3f
       0.3067450697276797 0.5782993135160082
000270 70 66 71 a9 43 4e b7 3f 50 f9 75 c9 cf 72 de bf
       0.09103796850959056 -0.475757548083398
000280 b0 be b6 42 27 d2 c9 bf c4 06 c7 fe ae 78 e1 bf
       -0.20172587163459843 -0.5459818817255031
000290 3c bc 04 72 d2 9c e7 bf 10 b9 fd 0b dc 97 bc bf
       -0.7378933169292234 -0.1116921929621848
0002a0 d2 0d 65 21 f2 29 e9 bf 10 c3 38 71 10 5b e1 3f
       -0.7863703396073396 0.5423662387239307
0002b0 94 68 62 c1 d4 79 ea 3f b0 4c 71 ac c1 49 dd 3f
       0.827371957496569 0.45762674179168084
0002c0 88 70 92 87 b4 61 dc bf d8 f8 6f 32 02 bf ef bf
       -0.4434634517617799 -0.9920664773087777
0002d0 54 ff 3a 1e e1 c7 de 3f 08 19 e3 92 40 58 c1 bf
       0.4809496684283563 -0.13550574466916765
0002e0 9c ca 87 73 0a a0 e4 bf f8 ef 7f 0d 51 7c da bf
       -0.644536233563787 -0.41383768385253417
0002f0 48 98 da cb cc 77 d7 3f d0 84 2e e1 84 70 ca 3f
       0.3666870108376128 0.20655880923462755
000300 08 8a ec 2c 88 b4 c6 bf f6 af 5b 2a c6 aa ef 3f
       -0.17738439744523782 0.9895964457805337
000310 a8 87 32 b0 2d 0c d0 bf 6e 4c 3c 7a c2 54 ec bf
       -0.25074331480765943 -0.8853466403401293
000320 a0 b6 4b 8f 39 9b e6 3f 80 0a 84 c6 7f 33 c8 bf
       0.7064483450646613 -0.18907162850526404
000330 0c 29 dc 71 0c ab e6 bf d0 91 e7 1f b7 a5 d7 3f
       -0.7083799575641776 0.3694894610946706
000340 50 c3 62 f7 dd 13 e3 bf b0 db 88 5b 7a 62 d7 bf
       -0.5961751777414097 -0.36538561762739175
000350 04 bd c1 09 24 e2 e3 3f 44 e8 88 43 9c 08 d5 bf
       0.6213550749361336 -0.32865053744501815
000360 68 2f 3b bd 37 a3 d9 3f be be df 87 5c ec e9 bf
       0.4005870197258816 -0.8101027158536096
000370 ce 4f ac 2f fe e2 e4 3f a0 b6 d7 d0 73 fc e8 3f
       0.6527090960612385 0.7808169440229058
000380 c6 68 a8 9e a1 97 e1 3f 46 32 d6 18 ce e4 e0 3f
       0.549759683493243 0.5279303059665572
000390 1e de 79 28 9b 6b ef 3f 6a c2 27 5e 01 57 e8 3f
       0.9818855085895313 0.7606207694025902
0003a0 20 62 48 c4 53 ec a5 3f 40 cd 81 e9 dd 9f a9 bf
       0.04281865855245237 -0.05004781222751342
0003b0 a4 f8 b9 12 ad d2 e3 3f e8 96 d0 44 56 58 c9 3f
       0.6194672933341008 0.19800833091829095
0003c0 56 0b 9f cd 0e 2f e1 bf e6 a3 2f 5f 3d 36 e4 bf
       -0.5369943634071699 -0.6316210612395678
0003d0 10 a7 35 35 e7 34 c2 bf 92 da 09 1f c3 8a e2 bf
       -0.14223947618602795 -0.579438744184545
0003e0 b8 1e c2 ff 2e 88 ec bf e8 82 ca 4a 65 73 d3 3f
       -0.8916239733961993 0.3039181928998418
0003f0 1a 48 96 ab 86 3a e3 3f d0 05 b1 4b 87 93 e5 bf
       0.6008942939099626 -0.6742588499402533
000400 b4 c8 9b 22 b7 7e df bf ce 17 ed f4 eb 16 ef 3f
       -0.492109092519182 0.9715480598176727
000410 b8 eb 7d 74 03 20 e3 bf c6 d3 f3 04 41 1a ed bf
       -0.5976578974945062 -0.9094548317649405
000420 a8 fb 25 e8 3d 35 d9 bf 98 08 b0 83 e3 b5 c0 bf
       -0.393874623019594 -0.13055080347118486
000430 1c bd 53 1d 96 08 d7 3f c0 74 7d de 62 f2 aa 3f
       0.35989907134985955 0.05263051000540875
000440 2c 05 84 6f b9 33 d7 bf 82 f5 38 a6 76 e9 ee 3f
       -0.36253200426297627 0.9659989592106941
000450 04 69 59 01 2f 56 d1 3f 3a ac 23 2a a8 e2 e0 bf
       0.2708852303673128 -0.5276680777582279
000460 ac 39 ff 8a a4 d2 da 3f 70 c6 42 29 ce 1e dc 3f
       0.4191066129104921 0.43938020734194705
000470 bc 52 0f 56 7b 96 e3 bf 9a c6 2f fc 5b c3 e5 3f
       -0.6121193581444326 0.6800975728530887
000480 08 47 c1 6e 43 60 c7 bf bc fb 7b 67 e5 9d e5 3f
       -0.18262522609671117 0.6755244275262764
000490 40 86 e3 10 91 41 97 3f 88 a7 ed cf 5a 11 ef bf
       0.02271105447369437 -0.9708684979534477
0004a0 78 49 dd 26 11 61 d4 3f 02 6a f7 a8 6a 50 ef bf
       0.31842449946738993 -0.9785664844633291
0004b0 bc e3 85 14 cd ad d5 bf 9c 73 31 52 27 42 e2 3f
       -0.3387329769535048 0.5705753903708799
0004c0 60 03 17 cb 0d 95 c3 3f 0c 99 9d 96 e9 c5 d5 3f
       0.15298626343249122 0.34020461758190446
0004d0 d4 23 ce c7 5e 6e d9 3f 20 e9 03 af 97 68 c3 3f
       0.3973614646170607 0.15162941022556087
0004e0 a8 47 f3 e8 eb e6 eb bf de 20 48 82 e8 72 ec 3f
       -0.8719386625109466 0.8890268845143756
0004f0 68 97 87 fa 3e b4 e0 3f 14 da 25 26 67 de ed 3f
       0.5220026868016534 0.9333987946582192
000500 fc 12 34 8c 13 e7 db bf ec 24 ed c5 71 b9 d6 bf
       -0.43597878162135806 -0.35506862953896134
000510 f0 ea b7 01 de aa e1 3f 70 81 b6 8a 54 c8 d7 bf
       0.5521078141749438 -0.3716021875971114
000520 9e 6a a9 df dc cc e6 bf 4a 5a ed 35 a4 64 e3 bf
       -0.71250766452734 -0.6060353329911063
000530 24 bf cd 8a 13 75 e0 bf 9c 3a 5a 17 42 4f e9 bf
       -0.5142915450105403 -0.7909250694372818
000540 20 88 3c 78 07 59 e1 3f ec 2e c8 a8 45 d5 ef bf
       0.5421178196304517 -0.9947841927073262
000550 0c 24 94 63 45 09 ea 3f bc 02 99 1f bc ed e5 bf
       0.813631720056152 -0.685270368303541
000560 88 f3 17 60 1c cb c3 3f 6c f8 7e 2c 6d f5 db 3f
       0.15463595096653315 0.43685464234648097
000570 38 70 14 d4 a0 ef e7 bf c0 b3 9d 57 60 b0 eb bf
       -0.7480014936622927 -0.8652803145647496
000580 80 9a 85 45 35 09 c5 bf 38 15 96 4c cd 5e e1 bf
       -0.1643435086691234 -0.5428225036454597
000590 f8 61 59 7c ed d2 c0 3f e0 a2 10 80 d3 95 d9 3f
       0.13143700191245933 0.39976966387125223
0005a0 f0 ad eb 72 9e 23 ec 3f 1c d9 44 c1 95 b6 d0 3f
       0.8793480152648367 0.2611441028015109
0005b0 b8 c6 e8 bc 2b 14 c1 bf c0 22 2c 43 ec f0 a0 3f
       -0.13342806552969022 0.03308809585548067
0005c0 28 b3 a0 41 0e 76 e9 3f c0 78 50 dd c6 bc e8 3f
       0.7956610948363947 0.7730440447374107
0005d0 1e 72 b2 c0 64 d7 ea bf 20 34 f2 df 33 4e d6 bf
       -0.8387931598295528 -0.34852311010109993
0005e0 04 c5 35 f9 15 c8 d3 bf 06 7b 75 5b 5d ec eb 3f
       -0.30908727013509485 0.872603109961205
0005f0 02 de 7f a9 ba af ed 3f 1c 46 47 0f e7 fb d2 bf
       0.9277013121163125 -0.2966249131396539
000600 49 16 2b b4 01 f7 a6 3f 99 ba 52 0a 97 06 e7 bf
       0.04485326122589279 -0.7195544435142721
000610 44 aa fc 99 cd 5c e1 3f 89 c0 61 9f c9 8b d7 3f
       0.54257850719052 0.3679069572890588
000620 fd 7d 12 56 e1 34 e5 bf 79 71 69 dd a8 a7 d0 bf
       -0.6627051049326266 -0.26023313162092837
000630 31 72 df 8b d3 81 c6 bf bd 12 b6 43 62 30 e0 3f
       -0.17583698587158517 0.5059062311634858
000640 c1 59 dc 7c 6a 93 b5 bf 9a d9 fa 1b a8 36 a8 bf
       -0.08428063915594121 -0.0472919973521357
000650 03 23 d3 7d df 91 e1 3f ca 87 5d d5 84 45 c0 3f
       0.5490567643656451 0.12712154787283075
000660 9d 9a f1 40 10 d5 ec bf e5 e4 03 dc 97 7b 90 3f
       -0.901008726924221 0.016096470645582967
000670 f7 c1 60 47 fd ba d9 3f bb 91 54 16 12 1a e9 3f
       0.40203792543891786 0.7844324527873633
000680 d5 6d 66 d9 cd e1 ed bf 6f cd fa 9e cc af da bf
       -0.9338139768691983 -0.4169799377952676
000690 85 44 da 15 f2 fb cf bf 0e d3 e5 c4 a7 6b ec 3f
       -0.24987627093335987 0.888141521993562
0006a0 52 71 48 f0 67 40 e8 bf f5 0b a3 f5 23 cb c1 bf
       -0.7578620617892204 -0.1390118550681049
0006b0 7f 2e b6 6a 66 5c eb 3f 43 4a 2f 8b 40 69 cc bf
       0.8550293049060683 -0.22196203991059535
0006c0 47 92 06 4e f7 97 d4 3f b2 b5 88 f2 aa 4e d8 3f
       0.3217752706498555 0.3798014992233575
0006d0 53 8d c9 10 bc e5 e8 bf ce b6 a4 d1 61 fc e0 bf
       -0.7780437782170487 -0.5308083624456346
0006e0 90 ce 6a f9 d4 37 eb bf ca 32 bd d7 d8 dd e6 bf
       -0.8505654212408036 -0.7145809377339785
0006f0 57 02 33 92 18 b6 d2 bf 13 bb a9 60 44 69 b7 bf
       -0.2923642566420645 -0.09144999847351824
000700 06 dc de a4 71 ba a3 3f 6f 5d 55 9c 00 16 a6 bf
       0.03853182923869984 -0.0431366148792972
000710 a5 be 5b 8a bb 37 dc 3f 04 00 95 5d d5 bf ef bf
       0.4409016467243226 -0.9921671703123143
000720 41 15 14 09 b5 5d df 3f 49 44 22 51 88 12 c5 3f
       0.49009443174903217 0.164628066650524
000730 79 72 2b f9 6f d2 aa bf d5 cc 09 86 92 84 da bf
       -0.05238675991652015 -0.4143415745704265
000740 26 6c a1 1c b4 b7 a4 3f 3d dd b7 4e 36 fe d6 3f
       0.04046404695028398 0.3592658776028264
000750 ec 0f 74 c9 8b 9f e8 3f f1 13 b0 00 d6 5e 98 bf
       0.7694758352886288 -0.023799270431499712
000760 4d c9 e5 a1 24 85 da bf 37 7a 3f a1 c0 c0 e8 3f
       -0.41437640962899 0.7735293530821029
000770 a6 d2 dc 2b 37 82 b6 bf 41 b5 d1 75 77 ec b4 3f
       -0.08792443104614253 0.08173319460339191
000780 b1 2d 20 1d 8f b1 c5 3f 33 4a 08 fb 7e 1a ef 3f
       0.1694811718192404 0.9719843771911826
000790 1c 3f 09 b0 05 aa ec bf 68 7e 01 09 b6 52 ec bf
       -0.8957546652036146 -0.885096566762468
0007a0 9e 76 69 fe 85 4b eb bf 12 91 93 a1 05 f4 ca bf
       -0.8529691666587558 -0.21057196034883724
0007b0 e8 02 05 09 7f c8 b9 3f 81 ec 2a ce ab 2b bb bf
       0.10071557970242007 -0.10613511832609569
0007c0 bd 14 73 34 70 e7 ed bf 10 5a 09 1a 6e 7c e8 bf
       -0.934501745644091 -0.7651892193342196
0007d0 ec 30 ba 21 06 48 e2 3f 9b b7 fb 10 fb 1e da 3f
       0.5712919863449577 0.40814091356775756
0007e0 f9 cd a3 18 b4 91 eb 3f cf 50 02 91 5e bb e6 3f
       0.8615360718962953 0.7103722412307664
0007f0 ee f1 9b ca b4 10 e2 bf 82 b0 85 d1 bb b9 cf 3f
       -0.5645393330774462 0.2478556416566598
